node {
  name: "Placeholder"
  op: "Placeholder"
  device: "/job:worker/task:0"
  attr {
    key: "_output_shapes"
    value {
      list {
        shape {
          dim {
            size: -1
          }
          dim {
            size: 784
          }
        }
      }
    }
  }
  attr {
    key: "dtype"
    value {
      type: DT_FLOAT
    }
  }
  attr {
    key: "shape"
    value {
      shape {
        dim {
          size: -1
        }
        dim {
          size: 784
        }
      }
    }
  }
}
node {
  name: "Placeholder_1"
  op: "Placeholder"
  device: "/job:worker/task:0"
  attr {
    key: "_output_shapes"
    value {
      list {
        shape {
          dim {
            size: -1
          }
          dim {
            size: 10
          }
        }
      }
    }
  }
  attr {
    key: "dtype"
    value {
      type: DT_FLOAT
    }
  }
  attr {
    key: "shape"
    value {
      shape {
        dim {
          size: -1
        }
        dim {
          size: 10
        }
      }
    }
  }
}
node {
  name: "Placeholder_2"
  op: "Placeholder"
  device: "/job:worker/task:0"
  attr {
    key: "_output_shapes"
    value {
      list {
        shape {
          unknown_rank: true
        }
      }
    }
  }
  attr {
    key: "dtype"
    value {
      type: DT_FLOAT
    }
  }
  attr {
    key: "shape"
    value {
      shape {
        unknown_rank: true
      }
    }
  }
}
node {
  name: "random_normal/shape"
  op: "Const"
  device: "/job:worker/task:0"
  attr {
    key: "_output_shapes"
    value {
      list {
        shape {
          dim {
            size: 4
          }
        }
      }
    }
  }
  attr {
    key: "dtype"
    value {
      type: DT_INT32
    }
  }
  attr {
    key: "value"
    value {
      tensor {
        dtype: DT_INT32
        tensor_shape {
          dim {
            size: 4
          }
        }
        tensor_content: "\005\000\000\000\005\000\000\000\001\000\000\000@\000\000\000"
      }
    }
  }
}
node {
  name: "random_normal/mean"
  op: "Const"
  device: "/job:worker/task:0"
  attr {
    key: "_output_shapes"
    value {
      list {
        shape {
        }
      }
    }
  }
  attr {
    key: "dtype"
    value {
      type: DT_FLOAT
    }
  }
  attr {
    key: "value"
    value {
      tensor {
        dtype: DT_FLOAT
        tensor_shape {
        }
        float_val: 0.0
      }
    }
  }
}
node {
  name: "random_normal/stddev"
  op: "Const"
  device: "/job:worker/task:0"
  attr {
    key: "_output_shapes"
    value {
      list {
        shape {
        }
      }
    }
  }
  attr {
    key: "dtype"
    value {
      type: DT_FLOAT
    }
  }
  attr {
    key: "value"
    value {
      tensor {
        dtype: DT_FLOAT
        tensor_shape {
        }
        float_val: 1.0
      }
    }
  }
}
node {
  name: "random_normal/RandomStandardNormal"
  op: "RandomStandardNormal"
  input: "random_normal/shape"
  device: "/job:worker/task:0"
  attr {
    key: "T"
    value {
      type: DT_INT32
    }
  }
  attr {
    key: "_output_shapes"
    value {
      list {
        shape {
          dim {
            size: 5
          }
          dim {
            size: 5
          }
          dim {
            size: 1
          }
          dim {
            size: 64
          }
        }
      }
    }
  }
  attr {
    key: "dtype"
    value {
      type: DT_FLOAT
    }
  }
  attr {
    key: "seed"
    value {
      i: 0
    }
  }
  attr {
    key: "seed2"
    value {
      i: 0
    }
  }
}
node {
  name: "random_normal/mul"
  op: "Mul"
  input: "random_normal/RandomStandardNormal"
  input: "random_normal/stddev"
  device: "/job:worker/task:0"
  attr {
    key: "T"
    value {
      type: DT_FLOAT
    }
  }
  attr {
    key: "_output_shapes"
    value {
      list {
        shape {
          dim {
            size: 5
          }
          dim {
            size: 5
          }
          dim {
            size: 1
          }
          dim {
            size: 64
          }
        }
      }
    }
  }
}
node {
  name: "random_normal"
  op: "Add"
  input: "random_normal/mul"
  input: "random_normal/mean"
  device: "/job:worker/task:0"
  attr {
    key: "T"
    value {
      type: DT_FLOAT
    }
  }
  attr {
    key: "_output_shapes"
    value {
      list {
        shape {
          dim {
            size: 5
          }
          dim {
            size: 5
          }
          dim {
            size: 1
          }
          dim {
            size: 64
          }
        }
      }
    }
  }
}
node {
  name: "Variable"
  op: "VariableV2"
  device: "/job:ps/task:0"
  attr {
    key: "_output_shapes"
    value {
      list {
        shape {
          dim {
            size: 5
          }
          dim {
            size: 5
          }
          dim {
            size: 1
          }
          dim {
            size: 64
          }
        }
      }
    }
  }
  attr {
    key: "container"
    value {
      s: ""
    }
  }
  attr {
    key: "dtype"
    value {
      type: DT_FLOAT
    }
  }
  attr {
    key: "shape"
    value {
      shape {
        dim {
          size: 5
        }
        dim {
          size: 5
        }
        dim {
          size: 1
        }
        dim {
          size: 64
        }
      }
    }
  }
  attr {
    key: "shared_name"
    value {
      s: ""
    }
  }
}
node {
  name: "Variable/Assign"
  op: "Assign"
  input: "Variable"
  input: "random_normal"
  device: "/job:ps/task:0"
  attr {
    key: "T"
    value {
      type: DT_FLOAT
    }
  }
  attr {
    key: "_class"
    value {
      list {
        s: "loc:@Variable"
      }
    }
  }
  attr {
    key: "_output_shapes"
    value {
      list {
        shape {
          dim {
            size: 5
          }
          dim {
            size: 5
          }
          dim {
            size: 1
          }
          dim {
            size: 64
          }
        }
      }
    }
  }
  attr {
    key: "use_locking"
    value {
      b: true
    }
  }
  attr {
    key: "validate_shape"
    value {
      b: true
    }
  }
}
node {
  name: "Variable/read"
  op: "Identity"
  input: "Variable"
  device: "/job:ps/task:0"
  attr {
    key: "T"
    value {
      type: DT_FLOAT
    }
  }
  attr {
    key: "_class"
    value {
      list {
        s: "loc:@Variable"
      }
    }
  }
  attr {
    key: "_output_shapes"
    value {
      list {
        shape {
          dim {
            size: 5
          }
          dim {
            size: 5
          }
          dim {
            size: 1
          }
          dim {
            size: 64
          }
        }
      }
    }
  }
}
node {
  name: "random_normal_1/shape"
  op: "Const"
  device: "/job:worker/task:0"
  attr {
    key: "_output_shapes"
    value {
      list {
        shape {
          dim {
            size: 4
          }
        }
      }
    }
  }
  attr {
    key: "dtype"
    value {
      type: DT_INT32
    }
  }
  attr {
    key: "value"
    value {
      tensor {
        dtype: DT_INT32
        tensor_shape {
          dim {
            size: 4
          }
        }
        tensor_content: "\005\000\000\000\005\000\000\000@\000\000\000\200\000\000\000"
      }
    }
  }
}
node {
  name: "random_normal_1/mean"
  op: "Const"
  device: "/job:worker/task:0"
  attr {
    key: "_output_shapes"
    value {
      list {
        shape {
        }
      }
    }
  }
  attr {
    key: "dtype"
    value {
      type: DT_FLOAT
    }
  }
  attr {
    key: "value"
    value {
      tensor {
        dtype: DT_FLOAT
        tensor_shape {
        }
        float_val: 0.0
      }
    }
  }
}
node {
  name: "random_normal_1/stddev"
  op: "Const"
  device: "/job:worker/task:0"
  attr {
    key: "_output_shapes"
    value {
      list {
        shape {
        }
      }
    }
  }
  attr {
    key: "dtype"
    value {
      type: DT_FLOAT
    }
  }
  attr {
    key: "value"
    value {
      tensor {
        dtype: DT_FLOAT
        tensor_shape {
        }
        float_val: 1.0
      }
    }
  }
}
node {
  name: "random_normal_1/RandomStandardNormal"
  op: "RandomStandardNormal"
  input: "random_normal_1/shape"
  device: "/job:worker/task:0"
  attr {
    key: "T"
    value {
      type: DT_INT32
    }
  }
  attr {
    key: "_output_shapes"
    value {
      list {
        shape {
          dim {
            size: 5
          }
          dim {
            size: 5
          }
          dim {
            size: 64
          }
          dim {
            size: 128
          }
        }
      }
    }
  }
  attr {
    key: "dtype"
    value {
      type: DT_FLOAT
    }
  }
  attr {
    key: "seed"
    value {
      i: 0
    }
  }
  attr {
    key: "seed2"
    value {
      i: 0
    }
  }
}
node {
  name: "random_normal_1/mul"
  op: "Mul"
  input: "random_normal_1/RandomStandardNormal"
  input: "random_normal_1/stddev"
  device: "/job:worker/task:0"
  attr {
    key: "T"
    value {
      type: DT_FLOAT
    }
  }
  attr {
    key: "_output_shapes"
    value {
      list {
        shape {
          dim {
            size: 5
          }
          dim {
            size: 5
          }
          dim {
            size: 64
          }
          dim {
            size: 128
          }
        }
      }
    }
  }
}
node {
  name: "random_normal_1"
  op: "Add"
  input: "random_normal_1/mul"
  input: "random_normal_1/mean"
  device: "/job:worker/task:0"
  attr {
    key: "T"
    value {
      type: DT_FLOAT
    }
  }
  attr {
    key: "_output_shapes"
    value {
      list {
        shape {
          dim {
            size: 5
          }
          dim {
            size: 5
          }
          dim {
            size: 64
          }
          dim {
            size: 128
          }
        }
      }
    }
  }
}
node {
  name: "Variable_1"
  op: "VariableV2"
  device: "/job:ps/task:0"
  attr {
    key: "_output_shapes"
    value {
      list {
        shape {
          dim {
            size: 5
          }
          dim {
            size: 5
          }
          dim {
            size: 64
          }
          dim {
            size: 128
          }
        }
      }
    }
  }
  attr {
    key: "container"
    value {
      s: ""
    }
  }
  attr {
    key: "dtype"
    value {
      type: DT_FLOAT
    }
  }
  attr {
    key: "shape"
    value {
      shape {
        dim {
          size: 5
        }
        dim {
          size: 5
        }
        dim {
          size: 64
        }
        dim {
          size: 128
        }
      }
    }
  }
  attr {
    key: "shared_name"
    value {
      s: ""
    }
  }
}
node {
  name: "Variable_1/Assign"
  op: "Assign"
  input: "Variable_1"
  input: "random_normal_1"
  device: "/job:ps/task:0"
  attr {
    key: "T"
    value {
      type: DT_FLOAT
    }
  }
  attr {
    key: "_class"
    value {
      list {
        s: "loc:@Variable_1"
      }
    }
  }
  attr {
    key: "_output_shapes"
    value {
      list {
        shape {
          dim {
            size: 5
          }
          dim {
            size: 5
          }
          dim {
            size: 64
          }
          dim {
            size: 128
          }
        }
      }
    }
  }
  attr {
    key: "use_locking"
    value {
      b: true
    }
  }
  attr {
    key: "validate_shape"
    value {
      b: true
    }
  }
}
node {
  name: "Variable_1/read"
  op: "Identity"
  input: "Variable_1"
  device: "/job:ps/task:0"
  attr {
    key: "T"
    value {
      type: DT_FLOAT
    }
  }
  attr {
    key: "_class"
    value {
      list {
        s: "loc:@Variable_1"
      }
    }
  }
  attr {
    key: "_output_shapes"
    value {
      list {
        shape {
          dim {
            size: 5
          }
          dim {
            size: 5
          }
          dim {
            size: 64
          }
          dim {
            size: 128
          }
        }
      }
    }
  }
}
node {
  name: "random_normal_2/shape"
  op: "Const"
  device: "/job:worker/task:0"
  attr {
    key: "_output_shapes"
    value {
      list {
        shape {
          dim {
            size: 2
          }
        }
      }
    }
  }
  attr {
    key: "dtype"
    value {
      type: DT_INT32
    }
  }
  attr {
    key: "value"
    value {
      tensor {
        dtype: DT_INT32
        tensor_shape {
          dim {
            size: 2
          }
        }
        tensor_content: "\200\030\000\000\000\004\000\000"
      }
    }
  }
}
node {
  name: "random_normal_2/mean"
  op: "Const"
  device: "/job:worker/task:0"
  attr {
    key: "_output_shapes"
    value {
      list {
        shape {
        }
      }
    }
  }
  attr {
    key: "dtype"
    value {
      type: DT_FLOAT
    }
  }
  attr {
    key: "value"
    value {
      tensor {
        dtype: DT_FLOAT
        tensor_shape {
        }
        float_val: 0.0
      }
    }
  }
}
node {
  name: "random_normal_2/stddev"
  op: "Const"
  device: "/job:worker/task:0"
  attr {
    key: "_output_shapes"
    value {
      list {
        shape {
        }
      }
    }
  }
  attr {
    key: "dtype"
    value {
      type: DT_FLOAT
    }
  }
  attr {
    key: "value"
    value {
      tensor {
        dtype: DT_FLOAT
        tensor_shape {
        }
        float_val: 1.0
      }
    }
  }
}
node {
  name: "random_normal_2/RandomStandardNormal"
  op: "RandomStandardNormal"
  input: "random_normal_2/shape"
  device: "/job:worker/task:0"
  attr {
    key: "T"
    value {
      type: DT_INT32
    }
  }
  attr {
    key: "_output_shapes"
    value {
      list {
        shape {
          dim {
            size: 6272
          }
          dim {
            size: 1024
          }
        }
      }
    }
  }
  attr {
    key: "dtype"
    value {
      type: DT_FLOAT
    }
  }
  attr {
    key: "seed"
    value {
      i: 0
    }
  }
  attr {
    key: "seed2"
    value {
      i: 0
    }
  }
}
node {
  name: "random_normal_2/mul"
  op: "Mul"
  input: "random_normal_2/RandomStandardNormal"
  input: "random_normal_2/stddev"
  device: "/job:worker/task:0"
  attr {
    key: "T"
    value {
      type: DT_FLOAT
    }
  }
  attr {
    key: "_output_shapes"
    value {
      list {
        shape {
          dim {
            size: 6272
          }
          dim {
            size: 1024
          }
        }
      }
    }
  }
}
node {
  name: "random_normal_2"
  op: "Add"
  input: "random_normal_2/mul"
  input: "random_normal_2/mean"
  device: "/job:worker/task:0"
  attr {
    key: "T"
    value {
      type: DT_FLOAT
    }
  }
  attr {
    key: "_output_shapes"
    value {
      list {
        shape {
          dim {
            size: 6272
          }
          dim {
            size: 1024
          }
        }
      }
    }
  }
}
node {
  name: "Variable_2"
  op: "VariableV2"
  device: "/job:ps/task:0"
  attr {
    key: "_output_shapes"
    value {
      list {
        shape {
          dim {
            size: 6272
          }
          dim {
            size: 1024
          }
        }
      }
    }
  }
  attr {
    key: "container"
    value {
      s: ""
    }
  }
  attr {
    key: "dtype"
    value {
      type: DT_FLOAT
    }
  }
  attr {
    key: "shape"
    value {
      shape {
        dim {
          size: 6272
        }
        dim {
          size: 1024
        }
      }
    }
  }
  attr {
    key: "shared_name"
    value {
      s: ""
    }
  }
}
node {
  name: "Variable_2/Assign"
  op: "Assign"
  input: "Variable_2"
  input: "random_normal_2"
  device: "/job:ps/task:0"
  attr {
    key: "T"
    value {
      type: DT_FLOAT
    }
  }
  attr {
    key: "_class"
    value {
      list {
        s: "loc:@Variable_2"
      }
    }
  }
  attr {
    key: "_output_shapes"
    value {
      list {
        shape {
          dim {
            size: 6272
          }
          dim {
            size: 1024
          }
        }
      }
    }
  }
  attr {
    key: "use_locking"
    value {
      b: true
    }
  }
  attr {
    key: "validate_shape"
    value {
      b: true
    }
  }
}
node {
  name: "Variable_2/read"
  op: "Identity"
  input: "Variable_2"
  device: "/job:ps/task:0"
  attr {
    key: "T"
    value {
      type: DT_FLOAT
    }
  }
  attr {
    key: "_class"
    value {
      list {
        s: "loc:@Variable_2"
      }
    }
  }
  attr {
    key: "_output_shapes"
    value {
      list {
        shape {
          dim {
            size: 6272
          }
          dim {
            size: 1024
          }
        }
      }
    }
  }
}
node {
  name: "random_normal_3/shape"
  op: "Const"
  device: "/job:worker/task:0"
  attr {
    key: "_output_shapes"
    value {
      list {
        shape {
          dim {
            size: 2
          }
        }
      }
    }
  }
  attr {
    key: "dtype"
    value {
      type: DT_INT32
    }
  }
  attr {
    key: "value"
    value {
      tensor {
        dtype: DT_INT32
        tensor_shape {
          dim {
            size: 2
          }
        }
        tensor_content: "\000\004\000\000\n\000\000\000"
      }
    }
  }
}
node {
  name: "random_normal_3/mean"
  op: "Const"
  device: "/job:worker/task:0"
  attr {
    key: "_output_shapes"
    value {
      list {
        shape {
        }
      }
    }
  }
  attr {
    key: "dtype"
    value {
      type: DT_FLOAT
    }
  }
  attr {
    key: "value"
    value {
      tensor {
        dtype: DT_FLOAT
        tensor_shape {
        }
        float_val: 0.0
      }
    }
  }
}
node {
  name: "random_normal_3/stddev"
  op: "Const"
  device: "/job:worker/task:0"
  attr {
    key: "_output_shapes"
    value {
      list {
        shape {
        }
      }
    }
  }
  attr {
    key: "dtype"
    value {
      type: DT_FLOAT
    }
  }
  attr {
    key: "value"
    value {
      tensor {
        dtype: DT_FLOAT
        tensor_shape {
        }
        float_val: 1.0
      }
    }
  }
}
node {
  name: "random_normal_3/RandomStandardNormal"
  op: "RandomStandardNormal"
  input: "random_normal_3/shape"
  device: "/job:worker/task:0"
  attr {
    key: "T"
    value {
      type: DT_INT32
    }
  }
  attr {
    key: "_output_shapes"
    value {
      list {
        shape {
          dim {
            size: 1024
          }
          dim {
            size: 10
          }
        }
      }
    }
  }
  attr {
    key: "dtype"
    value {
      type: DT_FLOAT
    }
  }
  attr {
    key: "seed"
    value {
      i: 0
    }
  }
  attr {
    key: "seed2"
    value {
      i: 0
    }
  }
}
node {
  name: "random_normal_3/mul"
  op: "Mul"
  input: "random_normal_3/RandomStandardNormal"
  input: "random_normal_3/stddev"
  device: "/job:worker/task:0"
  attr {
    key: "T"
    value {
      type: DT_FLOAT
    }
  }
  attr {
    key: "_output_shapes"
    value {
      list {
        shape {
          dim {
            size: 1024
          }
          dim {
            size: 10
          }
        }
      }
    }
  }
}
node {
  name: "random_normal_3"
  op: "Add"
  input: "random_normal_3/mul"
  input: "random_normal_3/mean"
  device: "/job:worker/task:0"
  attr {
    key: "T"
    value {
      type: DT_FLOAT
    }
  }
  attr {
    key: "_output_shapes"
    value {
      list {
        shape {
          dim {
            size: 1024
          }
          dim {
            size: 10
          }
        }
      }
    }
  }
}
node {
  name: "Variable_3"
  op: "VariableV2"
  device: "/job:ps/task:0"
  attr {
    key: "_output_shapes"
    value {
      list {
        shape {
          dim {
            size: 1024
          }
          dim {
            size: 10
          }
        }
      }
    }
  }
  attr {
    key: "container"
    value {
      s: ""
    }
  }
  attr {
    key: "dtype"
    value {
      type: DT_FLOAT
    }
  }
  attr {
    key: "shape"
    value {
      shape {
        dim {
          size: 1024
        }
        dim {
          size: 10
        }
      }
    }
  }
  attr {
    key: "shared_name"
    value {
      s: ""
    }
  }
}
node {
  name: "Variable_3/Assign"
  op: "Assign"
  input: "Variable_3"
  input: "random_normal_3"
  device: "/job:ps/task:0"
  attr {
    key: "T"
    value {
      type: DT_FLOAT
    }
  }
  attr {
    key: "_class"
    value {
      list {
        s: "loc:@Variable_3"
      }
    }
  }
  attr {
    key: "_output_shapes"
    value {
      list {
        shape {
          dim {
            size: 1024
          }
          dim {
            size: 10
          }
        }
      }
    }
  }
  attr {
    key: "use_locking"
    value {
      b: true
    }
  }
  attr {
    key: "validate_shape"
    value {
      b: true
    }
  }
}
node {
  name: "Variable_3/read"
  op: "Identity"
  input: "Variable_3"
  device: "/job:ps/task:0"
  attr {
    key: "T"
    value {
      type: DT_FLOAT
    }
  }
  attr {
    key: "_class"
    value {
      list {
        s: "loc:@Variable_3"
      }
    }
  }
  attr {
    key: "_output_shapes"
    value {
      list {
        shape {
          dim {
            size: 1024
          }
          dim {
            size: 10
          }
        }
      }
    }
  }
}
node {
  name: "random_normal_4/shape"
  op: "Const"
  device: "/job:worker/task:0"
  attr {
    key: "_output_shapes"
    value {
      list {
        shape {
          dim {
            size: 1
          }
        }
      }
    }
  }
  attr {
    key: "dtype"
    value {
      type: DT_INT32
    }
  }
  attr {
    key: "value"
    value {
      tensor {
        dtype: DT_INT32
        tensor_shape {
          dim {
            size: 1
          }
        }
        int_val: 64
      }
    }
  }
}
node {
  name: "random_normal_4/mean"
  op: "Const"
  device: "/job:worker/task:0"
  attr {
    key: "_output_shapes"
    value {
      list {
        shape {
        }
      }
    }
  }
  attr {
    key: "dtype"
    value {
      type: DT_FLOAT
    }
  }
  attr {
    key: "value"
    value {
      tensor {
        dtype: DT_FLOAT
        tensor_shape {
        }
        float_val: 0.0
      }
    }
  }
}
node {
  name: "random_normal_4/stddev"
  op: "Const"
  device: "/job:worker/task:0"
  attr {
    key: "_output_shapes"
    value {
      list {
        shape {
        }
      }
    }
  }
  attr {
    key: "dtype"
    value {
      type: DT_FLOAT
    }
  }
  attr {
    key: "value"
    value {
      tensor {
        dtype: DT_FLOAT
        tensor_shape {
        }
        float_val: 1.0
      }
    }
  }
}
node {
  name: "random_normal_4/RandomStandardNormal"
  op: "RandomStandardNormal"
  input: "random_normal_4/shape"
  device: "/job:worker/task:0"
  attr {
    key: "T"
    value {
      type: DT_INT32
    }
  }
  attr {
    key: "_output_shapes"
    value {
      list {
        shape {
          dim {
            size: 64
          }
        }
      }
    }
  }
  attr {
    key: "dtype"
    value {
      type: DT_FLOAT
    }
  }
  attr {
    key: "seed"
    value {
      i: 0
    }
  }
  attr {
    key: "seed2"
    value {
      i: 0
    }
  }
}
node {
  name: "random_normal_4/mul"
  op: "Mul"
  input: "random_normal_4/RandomStandardNormal"
  input: "random_normal_4/stddev"
  device: "/job:worker/task:0"
  attr {
    key: "T"
    value {
      type: DT_FLOAT
    }
  }
  attr {
    key: "_output_shapes"
    value {
      list {
        shape {
          dim {
            size: 64
          }
        }
      }
    }
  }
}
node {
  name: "random_normal_4"
  op: "Add"
  input: "random_normal_4/mul"
  input: "random_normal_4/mean"
  device: "/job:worker/task:0"
  attr {
    key: "T"
    value {
      type: DT_FLOAT
    }
  }
  attr {
    key: "_output_shapes"
    value {
      list {
        shape {
          dim {
            size: 64
          }
        }
      }
    }
  }
}
node {
  name: "Variable_4"
  op: "VariableV2"
  device: "/job:ps/task:0"
  attr {
    key: "_output_shapes"
    value {
      list {
        shape {
          dim {
            size: 64
          }
        }
      }
    }
  }
  attr {
    key: "container"
    value {
      s: ""
    }
  }
  attr {
    key: "dtype"
    value {
      type: DT_FLOAT
    }
  }
  attr {
    key: "shape"
    value {
      shape {
        dim {
          size: 64
        }
      }
    }
  }
  attr {
    key: "shared_name"
    value {
      s: ""
    }
  }
}
node {
  name: "Variable_4/Assign"
  op: "Assign"
  input: "Variable_4"
  input: "random_normal_4"
  device: "/job:ps/task:0"
  attr {
    key: "T"
    value {
      type: DT_FLOAT
    }
  }
  attr {
    key: "_class"
    value {
      list {
        s: "loc:@Variable_4"
      }
    }
  }
  attr {
    key: "_output_shapes"
    value {
      list {
        shape {
          dim {
            size: 64
          }
        }
      }
    }
  }
  attr {
    key: "use_locking"
    value {
      b: true
    }
  }
  attr {
    key: "validate_shape"
    value {
      b: true
    }
  }
}
node {
  name: "Variable_4/read"
  op: "Identity"
  input: "Variable_4"
  device: "/job:ps/task:0"
  attr {
    key: "T"
    value {
      type: DT_FLOAT
    }
  }
  attr {
    key: "_class"
    value {
      list {
        s: "loc:@Variable_4"
      }
    }
  }
  attr {
    key: "_output_shapes"
    value {
      list {
        shape {
          dim {
            size: 64
          }
        }
      }
    }
  }
}
node {
  name: "random_normal_5/shape"
  op: "Const"
  device: "/job:worker/task:0"
  attr {
    key: "_output_shapes"
    value {
      list {
        shape {
          dim {
            size: 1
          }
        }
      }
    }
  }
  attr {
    key: "dtype"
    value {
      type: DT_INT32
    }
  }
  attr {
    key: "value"
    value {
      tensor {
        dtype: DT_INT32
        tensor_shape {
          dim {
            size: 1
          }
        }
        int_val: 128
      }
    }
  }
}
node {
  name: "random_normal_5/mean"
  op: "Const"
  device: "/job:worker/task:0"
  attr {
    key: "_output_shapes"
    value {
      list {
        shape {
        }
      }
    }
  }
  attr {
    key: "dtype"
    value {
      type: DT_FLOAT
    }
  }
  attr {
    key: "value"
    value {
      tensor {
        dtype: DT_FLOAT
        tensor_shape {
        }
        float_val: 0.0
      }
    }
  }
}
node {
  name: "random_normal_5/stddev"
  op: "Const"
  device: "/job:worker/task:0"
  attr {
    key: "_output_shapes"
    value {
      list {
        shape {
        }
      }
    }
  }
  attr {
    key: "dtype"
    value {
      type: DT_FLOAT
    }
  }
  attr {
    key: "value"
    value {
      tensor {
        dtype: DT_FLOAT
        tensor_shape {
        }
        float_val: 1.0
      }
    }
  }
}
node {
  name: "random_normal_5/RandomStandardNormal"
  op: "RandomStandardNormal"
  input: "random_normal_5/shape"
  device: "/job:worker/task:0"
  attr {
    key: "T"
    value {
      type: DT_INT32
    }
  }
  attr {
    key: "_output_shapes"
    value {
      list {
        shape {
          dim {
            size: 128
          }
        }
      }
    }
  }
  attr {
    key: "dtype"
    value {
      type: DT_FLOAT
    }
  }
  attr {
    key: "seed"
    value {
      i: 0
    }
  }
  attr {
    key: "seed2"
    value {
      i: 0
    }
  }
}
node {
  name: "random_normal_5/mul"
  op: "Mul"
  input: "random_normal_5/RandomStandardNormal"
  input: "random_normal_5/stddev"
  device: "/job:worker/task:0"
  attr {
    key: "T"
    value {
      type: DT_FLOAT
    }
  }
  attr {
    key: "_output_shapes"
    value {
      list {
        shape {
          dim {
            size: 128
          }
        }
      }
    }
  }
}
node {
  name: "random_normal_5"
  op: "Add"
  input: "random_normal_5/mul"
  input: "random_normal_5/mean"
  device: "/job:worker/task:0"
  attr {
    key: "T"
    value {
      type: DT_FLOAT
    }
  }
  attr {
    key: "_output_shapes"
    value {
      list {
        shape {
          dim {
            size: 128
          }
        }
      }
    }
  }
}
node {
  name: "Variable_5"
  op: "VariableV2"
  device: "/job:ps/task:0"
  attr {
    key: "_output_shapes"
    value {
      list {
        shape {
          dim {
            size: 128
          }
        }
      }
    }
  }
  attr {
    key: "container"
    value {
      s: ""
    }
  }
  attr {
    key: "dtype"
    value {
      type: DT_FLOAT
    }
  }
  attr {
    key: "shape"
    value {
      shape {
        dim {
          size: 128
        }
      }
    }
  }
  attr {
    key: "shared_name"
    value {
      s: ""
    }
  }
}
node {
  name: "Variable_5/Assign"
  op: "Assign"
  input: "Variable_5"
  input: "random_normal_5"
  device: "/job:ps/task:0"
  attr {
    key: "T"
    value {
      type: DT_FLOAT
    }
  }
  attr {
    key: "_class"
    value {
      list {
        s: "loc:@Variable_5"
      }
    }
  }
  attr {
    key: "_output_shapes"
    value {
      list {
        shape {
          dim {
            size: 128
          }
        }
      }
    }
  }
  attr {
    key: "use_locking"
    value {
      b: true
    }
  }
  attr {
    key: "validate_shape"
    value {
      b: true
    }
  }
}
node {
  name: "Variable_5/read"
  op: "Identity"
  input: "Variable_5"
  device: "/job:ps/task:0"
  attr {
    key: "T"
    value {
      type: DT_FLOAT
    }
  }
  attr {
    key: "_class"
    value {
      list {
        s: "loc:@Variable_5"
      }
    }
  }
  attr {
    key: "_output_shapes"
    value {
      list {
        shape {
          dim {
            size: 128
          }
        }
      }
    }
  }
}
node {
  name: "random_normal_6/shape"
  op: "Const"
  device: "/job:worker/task:0"
  attr {
    key: "_output_shapes"
    value {
      list {
        shape {
          dim {
            size: 1
          }
        }
      }
    }
  }
  attr {
    key: "dtype"
    value {
      type: DT_INT32
    }
  }
  attr {
    key: "value"
    value {
      tensor {
        dtype: DT_INT32
        tensor_shape {
          dim {
            size: 1
          }
        }
        int_val: 1024
      }
    }
  }
}
node {
  name: "random_normal_6/mean"
  op: "Const"
  device: "/job:worker/task:0"
  attr {
    key: "_output_shapes"
    value {
      list {
        shape {
        }
      }
    }
  }
  attr {
    key: "dtype"
    value {
      type: DT_FLOAT
    }
  }
  attr {
    key: "value"
    value {
      tensor {
        dtype: DT_FLOAT
        tensor_shape {
        }
        float_val: 0.0
      }
    }
  }
}
node {
  name: "random_normal_6/stddev"
  op: "Const"
  device: "/job:worker/task:0"
  attr {
    key: "_output_shapes"
    value {
      list {
        shape {
        }
      }
    }
  }
  attr {
    key: "dtype"
    value {
      type: DT_FLOAT
    }
  }
  attr {
    key: "value"
    value {
      tensor {
        dtype: DT_FLOAT
        tensor_shape {
        }
        float_val: 1.0
      }
    }
  }
}
node {
  name: "random_normal_6/RandomStandardNormal"
  op: "RandomStandardNormal"
  input: "random_normal_6/shape"
  device: "/job:worker/task:0"
  attr {
    key: "T"
    value {
      type: DT_INT32
    }
  }
  attr {
    key: "_output_shapes"
    value {
      list {
        shape {
          dim {
            size: 1024
          }
        }
      }
    }
  }
  attr {
    key: "dtype"
    value {
      type: DT_FLOAT
    }
  }
  attr {
    key: "seed"
    value {
      i: 0
    }
  }
  attr {
    key: "seed2"
    value {
      i: 0
    }
  }
}
node {
  name: "random_normal_6/mul"
  op: "Mul"
  input: "random_normal_6/RandomStandardNormal"
  input: "random_normal_6/stddev"
  device: "/job:worker/task:0"
  attr {
    key: "T"
    value {
      type: DT_FLOAT
    }
  }
  attr {
    key: "_output_shapes"
    value {
      list {
        shape {
          dim {
            size: 1024
          }
        }
      }
    }
  }
}
node {
  name: "random_normal_6"
  op: "Add"
  input: "random_normal_6/mul"
  input: "random_normal_6/mean"
  device: "/job:worker/task:0"
  attr {
    key: "T"
    value {
      type: DT_FLOAT
    }
  }
  attr {
    key: "_output_shapes"
    value {
      list {
        shape {
          dim {
            size: 1024
          }
        }
      }
    }
  }
}
node {
  name: "Variable_6"
  op: "VariableV2"
  device: "/job:ps/task:0"
  attr {
    key: "_output_shapes"
    value {
      list {
        shape {
          dim {
            size: 1024
          }
        }
      }
    }
  }
  attr {
    key: "container"
    value {
      s: ""
    }
  }
  attr {
    key: "dtype"
    value {
      type: DT_FLOAT
    }
  }
  attr {
    key: "shape"
    value {
      shape {
        dim {
          size: 1024
        }
      }
    }
  }
  attr {
    key: "shared_name"
    value {
      s: ""
    }
  }
}
node {
  name: "Variable_6/Assign"
  op: "Assign"
  input: "Variable_6"
  input: "random_normal_6"
  device: "/job:ps/task:0"
  attr {
    key: "T"
    value {
      type: DT_FLOAT
    }
  }
  attr {
    key: "_class"
    value {
      list {
        s: "loc:@Variable_6"
      }
    }
  }
  attr {
    key: "_output_shapes"
    value {
      list {
        shape {
          dim {
            size: 1024
          }
        }
      }
    }
  }
  attr {
    key: "use_locking"
    value {
      b: true
    }
  }
  attr {
    key: "validate_shape"
    value {
      b: true
    }
  }
}
node {
  name: "Variable_6/read"
  op: "Identity"
  input: "Variable_6"
  device: "/job:ps/task:0"
  attr {
    key: "T"
    value {
      type: DT_FLOAT
    }
  }
  attr {
    key: "_class"
    value {
      list {
        s: "loc:@Variable_6"
      }
    }
  }
  attr {
    key: "_output_shapes"
    value {
      list {
        shape {
          dim {
            size: 1024
          }
        }
      }
    }
  }
}
node {
  name: "random_normal_7/shape"
  op: "Const"
  device: "/job:worker/task:0"
  attr {
    key: "_output_shapes"
    value {
      list {
        shape {
          dim {
            size: 1
          }
        }
      }
    }
  }
  attr {
    key: "dtype"
    value {
      type: DT_INT32
    }
  }
  attr {
    key: "value"
    value {
      tensor {
        dtype: DT_INT32
        tensor_shape {
          dim {
            size: 1
          }
        }
        int_val: 10
      }
    }
  }
}
node {
  name: "random_normal_7/mean"
  op: "Const"
  device: "/job:worker/task:0"
  attr {
    key: "_output_shapes"
    value {
      list {
        shape {
        }
      }
    }
  }
  attr {
    key: "dtype"
    value {
      type: DT_FLOAT
    }
  }
  attr {
    key: "value"
    value {
      tensor {
        dtype: DT_FLOAT
        tensor_shape {
        }
        float_val: 0.0
      }
    }
  }
}
node {
  name: "random_normal_7/stddev"
  op: "Const"
  device: "/job:worker/task:0"
  attr {
    key: "_output_shapes"
    value {
      list {
        shape {
        }
      }
    }
  }
  attr {
    key: "dtype"
    value {
      type: DT_FLOAT
    }
  }
  attr {
    key: "value"
    value {
      tensor {
        dtype: DT_FLOAT
        tensor_shape {
        }
        float_val: 1.0
      }
    }
  }
}
node {
  name: "random_normal_7/RandomStandardNormal"
  op: "RandomStandardNormal"
  input: "random_normal_7/shape"
  device: "/job:worker/task:0"
  attr {
    key: "T"
    value {
      type: DT_INT32
    }
  }
  attr {
    key: "_output_shapes"
    value {
      list {
        shape {
          dim {
            size: 10
          }
        }
      }
    }
  }
  attr {
    key: "dtype"
    value {
      type: DT_FLOAT
    }
  }
  attr {
    key: "seed"
    value {
      i: 0
    }
  }
  attr {
    key: "seed2"
    value {
      i: 0
    }
  }
}
node {
  name: "random_normal_7/mul"
  op: "Mul"
  input: "random_normal_7/RandomStandardNormal"
  input: "random_normal_7/stddev"
  device: "/job:worker/task:0"
  attr {
    key: "T"
    value {
      type: DT_FLOAT
    }
  }
  attr {
    key: "_output_shapes"
    value {
      list {
        shape {
          dim {
            size: 10
          }
        }
      }
    }
  }
}
node {
  name: "random_normal_7"
  op: "Add"
  input: "random_normal_7/mul"
  input: "random_normal_7/mean"
  device: "/job:worker/task:0"
  attr {
    key: "T"
    value {
      type: DT_FLOAT
    }
  }
  attr {
    key: "_output_shapes"
    value {
      list {
        shape {
          dim {
            size: 10
          }
        }
      }
    }
  }
}
node {
  name: "Variable_7"
  op: "VariableV2"
  device: "/job:ps/task:0"
  attr {
    key: "_output_shapes"
    value {
      list {
        shape {
          dim {
            size: 10
          }
        }
      }
    }
  }
  attr {
    key: "container"
    value {
      s: ""
    }
  }
  attr {
    key: "dtype"
    value {
      type: DT_FLOAT
    }
  }
  attr {
    key: "shape"
    value {
      shape {
        dim {
          size: 10
        }
      }
    }
  }
  attr {
    key: "shared_name"
    value {
      s: ""
    }
  }
}
node {
  name: "Variable_7/Assign"
  op: "Assign"
  input: "Variable_7"
  input: "random_normal_7"
  device: "/job:ps/task:0"
  attr {
    key: "T"
    value {
      type: DT_FLOAT
    }
  }
  attr {
    key: "_class"
    value {
      list {
        s: "loc:@Variable_7"
      }
    }
  }
  attr {
    key: "_output_shapes"
    value {
      list {
        shape {
          dim {
            size: 10
          }
        }
      }
    }
  }
  attr {
    key: "use_locking"
    value {
      b: true
    }
  }
  attr {
    key: "validate_shape"
    value {
      b: true
    }
  }
}
node {
  name: "Variable_7/read"
  op: "Identity"
  input: "Variable_7"
  device: "/job:ps/task:0"
  attr {
    key: "T"
    value {
      type: DT_FLOAT
    }
  }
  attr {
    key: "_class"
    value {
      list {
        s: "loc:@Variable_7"
      }
    }
  }
  attr {
    key: "_output_shapes"
    value {
      list {
        shape {
          dim {
            size: 10
          }
        }
      }
    }
  }
}
node {
  name: "Reshape/shape"
  op: "Const"
  device: "/job:worker/task:0"
  attr {
    key: "_output_shapes"
    value {
      list {
        shape {
          dim {
            size: 4
          }
        }
      }
    }
  }
  attr {
    key: "dtype"
    value {
      type: DT_INT32
    }
  }
  attr {
    key: "value"
    value {
      tensor {
        dtype: DT_INT32
        tensor_shape {
          dim {
            size: 4
          }
        }
        tensor_content: "\377\377\377\377\034\000\000\000\034\000\000\000\001\000\000\000"
      }
    }
  }
}
node {
  name: "Reshape"
  op: "Reshape"
  input: "Placeholder"
  input: "Reshape/shape"
  device: "/job:worker/task:0"
  attr {
    key: "T"
    value {
      type: DT_FLOAT
    }
  }
  attr {
    key: "Tshape"
    value {
      type: DT_INT32
    }
  }
  attr {
    key: "_output_shapes"
    value {
      list {
        shape {
          dim {
            size: -1
          }
          dim {
            size: 28
          }
          dim {
            size: 28
          }
          dim {
            size: 1
          }
        }
      }
    }
  }
}
node {
  name: "convolution/Conv2D"
  op: "Conv2D"
  input: "Reshape"
  input: "Variable/read"
  device: "/job:worker/task:0"
  attr {
    key: "T"
    value {
      type: DT_FLOAT
    }
  }
  attr {
    key: "_output_shapes"
    value {
      list {
        shape {
          dim {
            size: -1
          }
          dim {
            size: 28
          }
          dim {
            size: 28
          }
          dim {
            size: 64
          }
        }
      }
    }
  }
  attr {
    key: "data_format"
    value {
      s: "NHWC"
    }
  }
  attr {
    key: "dilations"
    value {
      list {
        i: 1
        i: 1
        i: 1
        i: 1
      }
    }
  }
  attr {
    key: "padding"
    value {
      s: "SAME"
    }
  }
  attr {
    key: "strides"
    value {
      list {
        i: 1
        i: 1
        i: 1
        i: 1
      }
    }
  }
  attr {
    key: "use_cudnn_on_gpu"
    value {
      b: true
    }
  }
}
node {
  name: "convolution/BiasAdd"
  op: "BiasAdd"
  input: "convolution/Conv2D"
  input: "Variable_4/read"
  device: "/job:worker/task:0"
  attr {
    key: "T"
    value {
      type: DT_FLOAT
    }
  }
  attr {
    key: "_output_shapes"
    value {
      list {
        shape {
          dim {
            size: -1
          }
          dim {
            size: 28
          }
          dim {
            size: 28
          }
          dim {
            size: 64
          }
        }
      }
    }
  }
  attr {
    key: "data_format"
    value {
      s: "NHWC"
    }
  }
}
node {
  name: "convolution/Relu"
  op: "Relu"
  input: "convolution/BiasAdd"
  device: "/job:worker/task:0"
  attr {
    key: "T"
    value {
      type: DT_FLOAT
    }
  }
  attr {
    key: "_output_shapes"
    value {
      list {
        shape {
          dim {
            size: -1
          }
          dim {
            size: 28
          }
          dim {
            size: 28
          }
          dim {
            size: 64
          }
        }
      }
    }
  }
}
node {
  name: "max_pool/MaxPool"
  op: "MaxPool"
  input: "convolution/Relu"
  device: "/job:worker/task:0"
  attr {
    key: "T"
    value {
      type: DT_FLOAT
    }
  }
  attr {
    key: "_output_shapes"
    value {
      list {
        shape {
          dim {
            size: -1
          }
          dim {
            size: 14
          }
          dim {
            size: 14
          }
          dim {
            size: 64
          }
        }
      }
    }
  }
  attr {
    key: "data_format"
    value {
      s: "NHWC"
    }
  }
  attr {
    key: "ksize"
    value {
      list {
        i: 1
        i: 2
        i: 2
        i: 1
      }
    }
  }
  attr {
    key: "padding"
    value {
      s: "SAME"
    }
  }
  attr {
    key: "strides"
    value {
      list {
        i: 1
        i: 2
        i: 2
        i: 1
      }
    }
  }
}
node {
  name: "convolution_1/Conv2D"
  op: "Conv2D"
  input: "max_pool/MaxPool"
  input: "Variable_1/read"
  device: "/job:worker/task:0"
  attr {
    key: "T"
    value {
      type: DT_FLOAT
    }
  }
  attr {
    key: "_output_shapes"
    value {
      list {
        shape {
          dim {
            size: -1
          }
          dim {
            size: 14
          }
          dim {
            size: 14
          }
          dim {
            size: 128
          }
        }
      }
    }
  }
  attr {
    key: "data_format"
    value {
      s: "NHWC"
    }
  }
  attr {
    key: "dilations"
    value {
      list {
        i: 1
        i: 1
        i: 1
        i: 1
      }
    }
  }
  attr {
    key: "padding"
    value {
      s: "SAME"
    }
  }
  attr {
    key: "strides"
    value {
      list {
        i: 1
        i: 1
        i: 1
        i: 1
      }
    }
  }
  attr {
    key: "use_cudnn_on_gpu"
    value {
      b: true
    }
  }
}
node {
  name: "convolution_1/BiasAdd"
  op: "BiasAdd"
  input: "convolution_1/Conv2D"
  input: "Variable_5/read"
  device: "/job:worker/task:0"
  attr {
    key: "T"
    value {
      type: DT_FLOAT
    }
  }
  attr {
    key: "_output_shapes"
    value {
      list {
        shape {
          dim {
            size: -1
          }
          dim {
            size: 14
          }
          dim {
            size: 14
          }
          dim {
            size: 128
          }
        }
      }
    }
  }
  attr {
    key: "data_format"
    value {
      s: "NHWC"
    }
  }
}
node {
  name: "convolution_1/Relu"
  op: "Relu"
  input: "convolution_1/BiasAdd"
  device: "/job:worker/task:0"
  attr {
    key: "T"
    value {
      type: DT_FLOAT
    }
  }
  attr {
    key: "_output_shapes"
    value {
      list {
        shape {
          dim {
            size: -1
          }
          dim {
            size: 14
          }
          dim {
            size: 14
          }
          dim {
            size: 128
          }
        }
      }
    }
  }
}
node {
  name: "max_pool_1/MaxPool"
  op: "MaxPool"
  input: "convolution_1/Relu"
  device: "/job:worker/task:0"
  attr {
    key: "T"
    value {
      type: DT_FLOAT
    }
  }
  attr {
    key: "_output_shapes"
    value {
      list {
        shape {
          dim {
            size: -1
          }
          dim {
            size: 7
          }
          dim {
            size: 7
          }
          dim {
            size: 128
          }
        }
      }
    }
  }
  attr {
    key: "data_format"
    value {
      s: "NHWC"
    }
  }
  attr {
    key: "ksize"
    value {
      list {
        i: 1
        i: 2
        i: 2
        i: 1
      }
    }
  }
  attr {
    key: "padding"
    value {
      s: "SAME"
    }
  }
  attr {
    key: "strides"
    value {
      list {
        i: 1
        i: 2
        i: 2
        i: 1
      }
    }
  }
}
node {
  name: "fully_connected1/Reshape/shape"
  op: "Const"
  device: "/job:worker/task:0"
  attr {
    key: "_output_shapes"
    value {
      list {
        shape {
          dim {
            size: 2
          }
        }
      }
    }
  }
  attr {
    key: "dtype"
    value {
      type: DT_INT32
    }
  }
  attr {
    key: "value"
    value {
      tensor {
        dtype: DT_INT32
        tensor_shape {
          dim {
            size: 2
          }
        }
        tensor_content: "\377\377\377\377\200\030\000\000"
      }
    }
  }
}
node {
  name: "fully_connected1/Reshape"
  op: "Reshape"
  input: "max_pool_1/MaxPool"
  input: "fully_connected1/Reshape/shape"
  device: "/job:worker/task:0"
  attr {
    key: "T"
    value {
      type: DT_FLOAT
    }
  }
  attr {
    key: "Tshape"
    value {
      type: DT_INT32
    }
  }
  attr {
    key: "_output_shapes"
    value {
      list {
        shape {
          dim {
            size: -1
          }
          dim {
            size: 6272
          }
        }
      }
    }
  }
}
node {
  name: "fully_connected1/MatMul"
  op: "MatMul"
  input: "fully_connected1/Reshape"
  input: "Variable_2/read"
  device: "/job:worker/task:0"
  attr {
    key: "T"
    value {
      type: DT_FLOAT
    }
  }
  attr {
    key: "_output_shapes"
    value {
      list {
        shape {
          dim {
            size: -1
          }
          dim {
            size: 1024
          }
        }
      }
    }
  }
  attr {
    key: "transpose_a"
    value {
      b: false
    }
  }
  attr {
    key: "transpose_b"
    value {
      b: false
    }
  }
}
node {
  name: "fully_connected1/Add"
  op: "Add"
  input: "fully_connected1/MatMul"
  input: "Variable_6/read"
  device: "/job:worker/task:0"
  attr {
    key: "T"
    value {
      type: DT_FLOAT
    }
  }
  attr {
    key: "_output_shapes"
    value {
      list {
        shape {
          dim {
            size: -1
          }
          dim {
            size: 1024
          }
        }
      }
    }
  }
}
node {
  name: "fully_connected1/Relu"
  op: "Relu"
  input: "fully_connected1/Add"
  device: "/job:worker/task:0"
  attr {
    key: "T"
    value {
      type: DT_FLOAT
    }
  }
  attr {
    key: "_output_shapes"
    value {
      list {
        shape {
          dim {
            size: -1
          }
          dim {
            size: 1024
          }
        }
      }
    }
  }
}
node {
  name: "fully_connected1/dropout/Shape"
  op: "Shape"
  input: "fully_connected1/Relu"
  device: "/job:worker/task:0"
  attr {
    key: "T"
    value {
      type: DT_FLOAT
    }
  }
  attr {
    key: "_output_shapes"
    value {
      list {
        shape {
          dim {
            size: 2
          }
        }
      }
    }
  }
  attr {
    key: "out_type"
    value {
      type: DT_INT32
    }
  }
}
node {
  name: "fully_connected1/dropout/random_uniform/min"
  op: "Const"
  device: "/job:worker/task:0"
  attr {
    key: "_output_shapes"
    value {
      list {
        shape {
        }
      }
    }
  }
  attr {
    key: "dtype"
    value {
      type: DT_FLOAT
    }
  }
  attr {
    key: "value"
    value {
      tensor {
        dtype: DT_FLOAT
        tensor_shape {
        }
        float_val: 0.0
      }
    }
  }
}
node {
  name: "fully_connected1/dropout/random_uniform/max"
  op: "Const"
  device: "/job:worker/task:0"
  attr {
    key: "_output_shapes"
    value {
      list {
        shape {
        }
      }
    }
  }
  attr {
    key: "dtype"
    value {
      type: DT_FLOAT
    }
  }
  attr {
    key: "value"
    value {
      tensor {
        dtype: DT_FLOAT
        tensor_shape {
        }
        float_val: 1.0
      }
    }
  }
}
node {
  name: "fully_connected1/dropout/random_uniform/RandomUniform"
  op: "RandomUniform"
  input: "fully_connected1/dropout/Shape"
  device: "/job:worker/task:0"
  attr {
    key: "T"
    value {
      type: DT_INT32
    }
  }
  attr {
    key: "_output_shapes"
    value {
      list {
        shape {
          dim {
            size: -1
          }
          dim {
            size: 1024
          }
        }
      }
    }
  }
  attr {
    key: "dtype"
    value {
      type: DT_FLOAT
    }
  }
  attr {
    key: "seed"
    value {
      i: 0
    }
  }
  attr {
    key: "seed2"
    value {
      i: 0
    }
  }
}
node {
  name: "fully_connected1/dropout/random_uniform/sub"
  op: "Sub"
  input: "fully_connected1/dropout/random_uniform/max"
  input: "fully_connected1/dropout/random_uniform/min"
  device: "/job:worker/task:0"
  attr {
    key: "T"
    value {
      type: DT_FLOAT
    }
  }
  attr {
    key: "_output_shapes"
    value {
      list {
        shape {
        }
      }
    }
  }
}
node {
  name: "fully_connected1/dropout/random_uniform/mul"
  op: "Mul"
  input: "fully_connected1/dropout/random_uniform/RandomUniform"
  input: "fully_connected1/dropout/random_uniform/sub"
  device: "/job:worker/task:0"
  attr {
    key: "T"
    value {
      type: DT_FLOAT
    }
  }
  attr {
    key: "_output_shapes"
    value {
      list {
        shape {
          dim {
            size: -1
          }
          dim {
            size: 1024
          }
        }
      }
    }
  }
}
node {
  name: "fully_connected1/dropout/random_uniform"
  op: "Add"
  input: "fully_connected1/dropout/random_uniform/mul"
  input: "fully_connected1/dropout/random_uniform/min"
  device: "/job:worker/task:0"
  attr {
    key: "T"
    value {
      type: DT_FLOAT
    }
  }
  attr {
    key: "_output_shapes"
    value {
      list {
        shape {
          dim {
            size: -1
          }
          dim {
            size: 1024
          }
        }
      }
    }
  }
}
node {
  name: "fully_connected1/dropout/add"
  op: "Add"
  input: "Placeholder_2"
  input: "fully_connected1/dropout/random_uniform"
  device: "/job:worker/task:0"
  attr {
    key: "T"
    value {
      type: DT_FLOAT
    }
  }
  attr {
    key: "_output_shapes"
    value {
      list {
        shape {
          unknown_rank: true
        }
      }
    }
  }
}
node {
  name: "fully_connected1/dropout/Floor"
  op: "Floor"
  input: "fully_connected1/dropout/add"
  device: "/job:worker/task:0"
  attr {
    key: "T"
    value {
      type: DT_FLOAT
    }
  }
  attr {
    key: "_output_shapes"
    value {
      list {
        shape {
          unknown_rank: true
        }
      }
    }
  }
}
node {
  name: "fully_connected1/dropout/div"
  op: "RealDiv"
  input: "fully_connected1/Relu"
  input: "Placeholder_2"
  device: "/job:worker/task:0"
  attr {
    key: "T"
    value {
      type: DT_FLOAT
    }
  }
  attr {
    key: "_output_shapes"
    value {
      list {
        shape {
          unknown_rank: true
        }
      }
    }
  }
}
node {
  name: "fully_connected1/dropout/mul"
  op: "Mul"
  input: "fully_connected1/dropout/div"
  input: "fully_connected1/dropout/Floor"
  device: "/job:worker/task:0"
  attr {
    key: "T"
    value {
      type: DT_FLOAT
    }
  }
  attr {
    key: "_output_shapes"
    value {
      list {
        shape {
          dim {
            size: -1
          }
          dim {
            size: 1024
          }
        }
      }
    }
  }
}
node {
  name: "output/MatMul"
  op: "MatMul"
  input: "fully_connected1/dropout/mul"
  input: "Variable_3/read"
  device: "/job:worker/task:0"
  attr {
    key: "T"
    value {
      type: DT_FLOAT
    }
  }
  attr {
    key: "_output_shapes"
    value {
      list {
        shape {
          dim {
            size: -1
          }
          dim {
            size: 10
          }
        }
      }
    }
  }
  attr {
    key: "transpose_a"
    value {
      b: false
    }
  }
  attr {
    key: "transpose_b"
    value {
      b: false
    }
  }
}
node {
  name: "output/Add"
  op: "Add"
  input: "output/MatMul"
  input: "Variable_7/read"
  device: "/job:worker/task:0"
  attr {
    key: "T"
    value {
      type: DT_FLOAT
    }
  }
  attr {
    key: "_output_shapes"
    value {
      list {
        shape {
          dim {
            size: -1
          }
          dim {
            size: 10
          }
        }
      }
    }
  }
}
node {
  name: "global_step/Initializer/zeros"
  op: "Const"
  attr {
    key: "_class"
    value {
      list {
        s: "loc:@global_step"
      }
    }
  }
  attr {
    key: "_output_shapes"
    value {
      list {
        shape {
        }
      }
    }
  }
  attr {
    key: "dtype"
    value {
      type: DT_INT64
    }
  }
  attr {
    key: "value"
    value {
      tensor {
        dtype: DT_INT64
        tensor_shape {
        }
        int64_val: 0
      }
    }
  }
}
node {
  name: "global_step"
  op: "VariableV2"
  device: "/job:ps/task:0"
  attr {
    key: "_class"
    value {
      list {
        s: "loc:@global_step"
      }
    }
  }
  attr {
    key: "_output_shapes"
    value {
      list {
        shape {
        }
      }
    }
  }
  attr {
    key: "container"
    value {
      s: ""
    }
  }
  attr {
    key: "dtype"
    value {
      type: DT_INT64
    }
  }
  attr {
    key: "shape"
    value {
      shape {
      }
    }
  }
  attr {
    key: "shared_name"
    value {
      s: ""
    }
  }
}
node {
  name: "global_step/Assign"
  op: "Assign"
  input: "global_step"
  input: "global_step/Initializer/zeros"
  device: "/job:ps/task:0"
  attr {
    key: "T"
    value {
      type: DT_INT64
    }
  }
  attr {
    key: "_class"
    value {
      list {
        s: "loc:@global_step"
      }
    }
  }
  attr {
    key: "_output_shapes"
    value {
      list {
        shape {
        }
      }
    }
  }
  attr {
    key: "use_locking"
    value {
      b: true
    }
  }
  attr {
    key: "validate_shape"
    value {
      b: true
    }
  }
}
node {
  name: "global_step/read"
  op: "Identity"
  input: "global_step"
  device: "/job:ps/task:0"
  attr {
    key: "T"
    value {
      type: DT_INT64
    }
  }
  attr {
    key: "_class"
    value {
      list {
        s: "loc:@global_step"
      }
    }
  }
  attr {
    key: "_output_shapes"
    value {
      list {
        shape {
        }
      }
    }
  }
}
node {
  name: "cost/softmax_cross_entropy_with_logits_sg/labels_stop_gradient"
  op: "StopGradient"
  input: "Placeholder_1"
  device: "/job:worker/task:0"
  attr {
    key: "T"
    value {
      type: DT_FLOAT
    }
  }
  attr {
    key: "_output_shapes"
    value {
      list {
        shape {
          dim {
            size: -1
          }
          dim {
            size: 10
          }
        }
      }
    }
  }
}
node {
  name: "cost/softmax_cross_entropy_with_logits_sg/Rank"
  op: "Const"
  device: "/job:worker/task:0"
  attr {
    key: "_output_shapes"
    value {
      list {
        shape {
        }
      }
    }
  }
  attr {
    key: "dtype"
    value {
      type: DT_INT32
    }
  }
  attr {
    key: "value"
    value {
      tensor {
        dtype: DT_INT32
        tensor_shape {
        }
        int_val: 2
      }
    }
  }
}
node {
  name: "cost/softmax_cross_entropy_with_logits_sg/Shape"
  op: "Shape"
  input: "output/Add"
  device: "/job:worker/task:0"
  attr {
    key: "T"
    value {
      type: DT_FLOAT
    }
  }
  attr {
    key: "_output_shapes"
    value {
      list {
        shape {
          dim {
            size: 2
          }
        }
      }
    }
  }
  attr {
    key: "out_type"
    value {
      type: DT_INT32
    }
  }
}
node {
  name: "cost/softmax_cross_entropy_with_logits_sg/Rank_1"
  op: "Const"
  device: "/job:worker/task:0"
  attr {
    key: "_output_shapes"
    value {
      list {
        shape {
        }
      }
    }
  }
  attr {
    key: "dtype"
    value {
      type: DT_INT32
    }
  }
  attr {
    key: "value"
    value {
      tensor {
        dtype: DT_INT32
        tensor_shape {
        }
        int_val: 2
      }
    }
  }
}
node {
  name: "cost/softmax_cross_entropy_with_logits_sg/Shape_1"
  op: "Shape"
  input: "output/Add"
  device: "/job:worker/task:0"
  attr {
    key: "T"
    value {
      type: DT_FLOAT
    }
  }
  attr {
    key: "_output_shapes"
    value {
      list {
        shape {
          dim {
            size: 2
          }
        }
      }
    }
  }
  attr {
    key: "out_type"
    value {
      type: DT_INT32
    }
  }
}
node {
  name: "cost/softmax_cross_entropy_with_logits_sg/Sub/y"
  op: "Const"
  device: "/job:worker/task:0"
  attr {
    key: "_output_shapes"
    value {
      list {
        shape {
        }
      }
    }
  }
  attr {
    key: "dtype"
    value {
      type: DT_INT32
    }
  }
  attr {
    key: "value"
    value {
      tensor {
        dtype: DT_INT32
        tensor_shape {
        }
        int_val: 1
      }
    }
  }
}
node {
  name: "cost/softmax_cross_entropy_with_logits_sg/Sub"
  op: "Sub"
  input: "cost/softmax_cross_entropy_with_logits_sg/Rank_1"
  input: "cost/softmax_cross_entropy_with_logits_sg/Sub/y"
  device: "/job:worker/task:0"
  attr {
    key: "T"
    value {
      type: DT_INT32
    }
  }
  attr {
    key: "_output_shapes"
    value {
      list {
        shape {
        }
      }
    }
  }
}
node {
  name: "cost/softmax_cross_entropy_with_logits_sg/Slice/begin"
  op: "Pack"
  input: "cost/softmax_cross_entropy_with_logits_sg/Sub"
  device: "/job:worker/task:0"
  attr {
    key: "N"
    value {
      i: 1
    }
  }
  attr {
    key: "T"
    value {
      type: DT_INT32
    }
  }
  attr {
    key: "_output_shapes"
    value {
      list {
        shape {
          dim {
            size: 1
          }
        }
      }
    }
  }
  attr {
    key: "axis"
    value {
      i: 0
    }
  }
}
node {
  name: "cost/softmax_cross_entropy_with_logits_sg/Slice/size"
  op: "Const"
  device: "/job:worker/task:0"
  attr {
    key: "_output_shapes"
    value {
      list {
        shape {
          dim {
            size: 1
          }
        }
      }
    }
  }
  attr {
    key: "dtype"
    value {
      type: DT_INT32
    }
  }
  attr {
    key: "value"
    value {
      tensor {
        dtype: DT_INT32
        tensor_shape {
          dim {
            size: 1
          }
        }
        int_val: 1
      }
    }
  }
}
node {
  name: "cost/softmax_cross_entropy_with_logits_sg/Slice"
  op: "Slice"
  input: "cost/softmax_cross_entropy_with_logits_sg/Shape_1"
  input: "cost/softmax_cross_entropy_with_logits_sg/Slice/begin"
  input: "cost/softmax_cross_entropy_with_logits_sg/Slice/size"
  device: "/job:worker/task:0"
  attr {
    key: "Index"
    value {
      type: DT_INT32
    }
  }
  attr {
    key: "T"
    value {
      type: DT_INT32
    }
  }
  attr {
    key: "_output_shapes"
    value {
      list {
        shape {
          dim {
            size: 1
          }
        }
      }
    }
  }
}
node {
  name: "cost/softmax_cross_entropy_with_logits_sg/concat/values_0"
  op: "Const"
  device: "/job:worker/task:0"
  attr {
    key: "_output_shapes"
    value {
      list {
        shape {
          dim {
            size: 1
          }
        }
      }
    }
  }
  attr {
    key: "dtype"
    value {
      type: DT_INT32
    }
  }
  attr {
    key: "value"
    value {
      tensor {
        dtype: DT_INT32
        tensor_shape {
          dim {
            size: 1
          }
        }
        int_val: -1
      }
    }
  }
}
node {
  name: "cost/softmax_cross_entropy_with_logits_sg/concat/axis"
  op: "Const"
  device: "/job:worker/task:0"
  attr {
    key: "_output_shapes"
    value {
      list {
        shape {
        }
      }
    }
  }
  attr {
    key: "dtype"
    value {
      type: DT_INT32
    }
  }
  attr {
    key: "value"
    value {
      tensor {
        dtype: DT_INT32
        tensor_shape {
        }
        int_val: 0
      }
    }
  }
}
node {
  name: "cost/softmax_cross_entropy_with_logits_sg/concat"
  op: "ConcatV2"
  input: "cost/softmax_cross_entropy_with_logits_sg/concat/values_0"
  input: "cost/softmax_cross_entropy_with_logits_sg/Slice"
  input: "cost/softmax_cross_entropy_with_logits_sg/concat/axis"
  device: "/job:worker/task:0"
  attr {
    key: "N"
    value {
      i: 2
    }
  }
  attr {
    key: "T"
    value {
      type: DT_INT32
    }
  }
  attr {
    key: "Tidx"
    value {
      type: DT_INT32
    }
  }
  attr {
    key: "_output_shapes"
    value {
      list {
        shape {
          dim {
            size: 2
          }
        }
      }
    }
  }
}
node {
  name: "cost/softmax_cross_entropy_with_logits_sg/Reshape"
  op: "Reshape"
  input: "output/Add"
  input: "cost/softmax_cross_entropy_with_logits_sg/concat"
  device: "/job:worker/task:0"
  attr {
    key: "T"
    value {
      type: DT_FLOAT
    }
  }
  attr {
    key: "Tshape"
    value {
      type: DT_INT32
    }
  }
  attr {
    key: "_output_shapes"
    value {
      list {
        shape {
          dim {
            size: -1
          }
          dim {
            size: -1
          }
        }
      }
    }
  }
}
node {
  name: "cost/softmax_cross_entropy_with_logits_sg/Rank_2"
  op: "Const"
  device: "/job:worker/task:0"
  attr {
    key: "_output_shapes"
    value {
      list {
        shape {
        }
      }
    }
  }
  attr {
    key: "dtype"
    value {
      type: DT_INT32
    }
  }
  attr {
    key: "value"
    value {
      tensor {
        dtype: DT_INT32
        tensor_shape {
        }
        int_val: 2
      }
    }
  }
}
node {
  name: "cost/softmax_cross_entropy_with_logits_sg/Shape_2"
  op: "Shape"
  input: "cost/softmax_cross_entropy_with_logits_sg/labels_stop_gradient"
  device: "/job:worker/task:0"
  attr {
    key: "T"
    value {
      type: DT_FLOAT
    }
  }
  attr {
    key: "_output_shapes"
    value {
      list {
        shape {
          dim {
            size: 2
          }
        }
      }
    }
  }
  attr {
    key: "out_type"
    value {
      type: DT_INT32
    }
  }
}
node {
  name: "cost/softmax_cross_entropy_with_logits_sg/Sub_1/y"
  op: "Const"
  device: "/job:worker/task:0"
  attr {
    key: "_output_shapes"
    value {
      list {
        shape {
        }
      }
    }
  }
  attr {
    key: "dtype"
    value {
      type: DT_INT32
    }
  }
  attr {
    key: "value"
    value {
      tensor {
        dtype: DT_INT32
        tensor_shape {
        }
        int_val: 1
      }
    }
  }
}
node {
  name: "cost/softmax_cross_entropy_with_logits_sg/Sub_1"
  op: "Sub"
  input: "cost/softmax_cross_entropy_with_logits_sg/Rank_2"
  input: "cost/softmax_cross_entropy_with_logits_sg/Sub_1/y"
  device: "/job:worker/task:0"
  attr {
    key: "T"
    value {
      type: DT_INT32
    }
  }
  attr {
    key: "_output_shapes"
    value {
      list {
        shape {
        }
      }
    }
  }
}
node {
  name: "cost/softmax_cross_entropy_with_logits_sg/Slice_1/begin"
  op: "Pack"
  input: "cost/softmax_cross_entropy_with_logits_sg/Sub_1"
  device: "/job:worker/task:0"
  attr {
    key: "N"
    value {
      i: 1
    }
  }
  attr {
    key: "T"
    value {
      type: DT_INT32
    }
  }
  attr {
    key: "_output_shapes"
    value {
      list {
        shape {
          dim {
            size: 1
          }
        }
      }
    }
  }
  attr {
    key: "axis"
    value {
      i: 0
    }
  }
}
node {
  name: "cost/softmax_cross_entropy_with_logits_sg/Slice_1/size"
  op: "Const"
  device: "/job:worker/task:0"
  attr {
    key: "_output_shapes"
    value {
      list {
        shape {
          dim {
            size: 1
          }
        }
      }
    }
  }
  attr {
    key: "dtype"
    value {
      type: DT_INT32
    }
  }
  attr {
    key: "value"
    value {
      tensor {
        dtype: DT_INT32
        tensor_shape {
          dim {
            size: 1
          }
        }
        int_val: 1
      }
    }
  }
}
node {
  name: "cost/softmax_cross_entropy_with_logits_sg/Slice_1"
  op: "Slice"
  input: "cost/softmax_cross_entropy_with_logits_sg/Shape_2"
  input: "cost/softmax_cross_entropy_with_logits_sg/Slice_1/begin"
  input: "cost/softmax_cross_entropy_with_logits_sg/Slice_1/size"
  device: "/job:worker/task:0"
  attr {
    key: "Index"
    value {
      type: DT_INT32
    }
  }
  attr {
    key: "T"
    value {
      type: DT_INT32
    }
  }
  attr {
    key: "_output_shapes"
    value {
      list {
        shape {
          dim {
            size: 1
          }
        }
      }
    }
  }
}
node {
  name: "cost/softmax_cross_entropy_with_logits_sg/concat_1/values_0"
  op: "Const"
  device: "/job:worker/task:0"
  attr {
    key: "_output_shapes"
    value {
      list {
        shape {
          dim {
            size: 1
          }
        }
      }
    }
  }
  attr {
    key: "dtype"
    value {
      type: DT_INT32
    }
  }
  attr {
    key: "value"
    value {
      tensor {
        dtype: DT_INT32
        tensor_shape {
          dim {
            size: 1
          }
        }
        int_val: -1
      }
    }
  }
}
node {
  name: "cost/softmax_cross_entropy_with_logits_sg/concat_1/axis"
  op: "Const"
  device: "/job:worker/task:0"
  attr {
    key: "_output_shapes"
    value {
      list {
        shape {
        }
      }
    }
  }
  attr {
    key: "dtype"
    value {
      type: DT_INT32
    }
  }
  attr {
    key: "value"
    value {
      tensor {
        dtype: DT_INT32
        tensor_shape {
        }
        int_val: 0
      }
    }
  }
}
node {
  name: "cost/softmax_cross_entropy_with_logits_sg/concat_1"
  op: "ConcatV2"
  input: "cost/softmax_cross_entropy_with_logits_sg/concat_1/values_0"
  input: "cost/softmax_cross_entropy_with_logits_sg/Slice_1"
  input: "cost/softmax_cross_entropy_with_logits_sg/concat_1/axis"
  device: "/job:worker/task:0"
  attr {
    key: "N"
    value {
      i: 2
    }
  }
  attr {
    key: "T"
    value {
      type: DT_INT32
    }
  }
  attr {
    key: "Tidx"
    value {
      type: DT_INT32
    }
  }
  attr {
    key: "_output_shapes"
    value {
      list {
        shape {
          dim {
            size: 2
          }
        }
      }
    }
  }
}
node {
  name: "cost/softmax_cross_entropy_with_logits_sg/Reshape_1"
  op: "Reshape"
  input: "cost/softmax_cross_entropy_with_logits_sg/labels_stop_gradient"
  input: "cost/softmax_cross_entropy_with_logits_sg/concat_1"
  device: "/job:worker/task:0"
  attr {
    key: "T"
    value {
      type: DT_FLOAT
    }
  }
  attr {
    key: "Tshape"
    value {
      type: DT_INT32
    }
  }
  attr {
    key: "_output_shapes"
    value {
      list {
        shape {
          dim {
            size: -1
          }
          dim {
            size: -1
          }
        }
      }
    }
  }
}
node {
  name: "cost/softmax_cross_entropy_with_logits_sg"
  op: "SoftmaxCrossEntropyWithLogits"
  input: "cost/softmax_cross_entropy_with_logits_sg/Reshape"
  input: "cost/softmax_cross_entropy_with_logits_sg/Reshape_1"
  device: "/job:worker/task:0"
  attr {
    key: "T"
    value {
      type: DT_FLOAT
    }
  }
  attr {
    key: "_output_shapes"
    value {
      list {
        shape {
          dim {
            size: -1
          }
        }
        shape {
          dim {
            size: -1
          }
          dim {
            size: -1
          }
        }
      }
    }
  }
}
node {
  name: "cost/softmax_cross_entropy_with_logits_sg/Sub_2/y"
  op: "Const"
  device: "/job:worker/task:0"
  attr {
    key: "_output_shapes"
    value {
      list {
        shape {
        }
      }
    }
  }
  attr {
    key: "dtype"
    value {
      type: DT_INT32
    }
  }
  attr {
    key: "value"
    value {
      tensor {
        dtype: DT_INT32
        tensor_shape {
        }
        int_val: 1
      }
    }
  }
}
node {
  name: "cost/softmax_cross_entropy_with_logits_sg/Sub_2"
  op: "Sub"
  input: "cost/softmax_cross_entropy_with_logits_sg/Rank"
  input: "cost/softmax_cross_entropy_with_logits_sg/Sub_2/y"
  device: "/job:worker/task:0"
  attr {
    key: "T"
    value {
      type: DT_INT32
    }
  }
  attr {
    key: "_output_shapes"
    value {
      list {
        shape {
        }
      }
    }
  }
}
node {
  name: "cost/softmax_cross_entropy_with_logits_sg/Slice_2/begin"
  op: "Const"
  device: "/job:worker/task:0"
  attr {
    key: "_output_shapes"
    value {
      list {
        shape {
          dim {
            size: 1
          }
        }
      }
    }
  }
  attr {
    key: "dtype"
    value {
      type: DT_INT32
    }
  }
  attr {
    key: "value"
    value {
      tensor {
        dtype: DT_INT32
        tensor_shape {
          dim {
            size: 1
          }
        }
        int_val: 0
      }
    }
  }
}
node {
  name: "cost/softmax_cross_entropy_with_logits_sg/Slice_2/size"
  op: "Pack"
  input: "cost/softmax_cross_entropy_with_logits_sg/Sub_2"
  device: "/job:worker/task:0"
  attr {
    key: "N"
    value {
      i: 1
    }
  }
  attr {
    key: "T"
    value {
      type: DT_INT32
    }
  }
  attr {
    key: "_output_shapes"
    value {
      list {
        shape {
          dim {
            size: 1
          }
        }
      }
    }
  }
  attr {
    key: "axis"
    value {
      i: 0
    }
  }
}
node {
  name: "cost/softmax_cross_entropy_with_logits_sg/Slice_2"
  op: "Slice"
  input: "cost/softmax_cross_entropy_with_logits_sg/Shape"
  input: "cost/softmax_cross_entropy_with_logits_sg/Slice_2/begin"
  input: "cost/softmax_cross_entropy_with_logits_sg/Slice_2/size"
  device: "/job:worker/task:0"
  attr {
    key: "Index"
    value {
      type: DT_INT32
    }
  }
  attr {
    key: "T"
    value {
      type: DT_INT32
    }
  }
  attr {
    key: "_output_shapes"
    value {
      list {
        shape {
          dim {
            size: -1
          }
        }
      }
    }
  }
}
node {
  name: "cost/softmax_cross_entropy_with_logits_sg/Reshape_2"
  op: "Reshape"
  input: "cost/softmax_cross_entropy_with_logits_sg"
  input: "cost/softmax_cross_entropy_with_logits_sg/Slice_2"
  device: "/job:worker/task:0"
  attr {
    key: "T"
    value {
      type: DT_FLOAT
    }
  }
  attr {
    key: "Tshape"
    value {
      type: DT_INT32
    }
  }
  attr {
    key: "_output_shapes"
    value {
      list {
        shape {
          dim {
            size: -1
          }
        }
      }
    }
  }
}
node {
  name: "cost/Const"
  op: "Const"
  device: "/job:worker/task:0"
  attr {
    key: "_output_shapes"
    value {
      list {
        shape {
          dim {
            size: 1
          }
        }
      }
    }
  }
  attr {
    key: "dtype"
    value {
      type: DT_INT32
    }
  }
  attr {
    key: "value"
    value {
      tensor {
        dtype: DT_INT32
        tensor_shape {
          dim {
            size: 1
          }
        }
        int_val: 0
      }
    }
  }
}
node {
  name: "cost/Mean"
  op: "Mean"
  input: "cost/softmax_cross_entropy_with_logits_sg/Reshape_2"
  input: "cost/Const"
  device: "/job:worker/task:0"
  attr {
    key: "T"
    value {
      type: DT_FLOAT
    }
  }
  attr {
    key: "Tidx"
    value {
      type: DT_INT32
    }
  }
  attr {
    key: "_output_shapes"
    value {
      list {
        shape {
        }
      }
    }
  }
  attr {
    key: "keep_dims"
    value {
      b: false
    }
  }
}
node {
  name: "cost/cost/tags"
  op: "Const"
  device: "/job:worker/task:0"
  attr {
    key: "_output_shapes"
    value {
      list {
        shape {
        }
      }
    }
  }
  attr {
    key: "dtype"
    value {
      type: DT_STRING
    }
  }
  attr {
    key: "value"
    value {
      tensor {
        dtype: DT_STRING
        tensor_shape {
        }
        string_val: "cost/cost"
      }
    }
  }
}
node {
  name: "cost/cost"
  op: "ScalarSummary"
  input: "cost/cost/tags"
  input: "cost/Mean"
  device: "/job:worker/task:0"
  attr {
    key: "T"
    value {
      type: DT_FLOAT
    }
  }
  attr {
    key: "_output_shapes"
    value {
      list {
        shape {
        }
      }
    }
  }
}
node {
  name: "gradients/Shape"
  op: "Const"
  device: "/job:worker/task:0"
  attr {
    key: "_output_shapes"
    value {
      list {
        shape {
          dim {
          }
        }
      }
    }
  }
  attr {
    key: "dtype"
    value {
      type: DT_INT32
    }
  }
  attr {
    key: "value"
    value {
      tensor {
        dtype: DT_INT32
        tensor_shape {
          dim {
          }
        }
      }
    }
  }
}
node {
  name: "gradients/grad_ys_0"
  op: "Const"
  device: "/job:worker/task:0"
  attr {
    key: "_output_shapes"
    value {
      list {
        shape {
        }
      }
    }
  }
  attr {
    key: "dtype"
    value {
      type: DT_FLOAT
    }
  }
  attr {
    key: "value"
    value {
      tensor {
        dtype: DT_FLOAT
        tensor_shape {
        }
        float_val: 1.0
      }
    }
  }
}
node {
  name: "gradients/Fill"
  op: "Fill"
  input: "gradients/Shape"
  input: "gradients/grad_ys_0"
  device: "/job:worker/task:0"
  attr {
    key: "T"
    value {
      type: DT_FLOAT
    }
  }
  attr {
    key: "_output_shapes"
    value {
      list {
        shape {
        }
      }
    }
  }
  attr {
    key: "index_type"
    value {
      type: DT_INT32
    }
  }
}
node {
  name: "gradients/cost/Mean_grad/Reshape/shape"
  op: "Const"
  device: "/job:worker/task:0"
  attr {
    key: "_output_shapes"
    value {
      list {
        shape {
          dim {
            size: 1
          }
        }
      }
    }
  }
  attr {
    key: "dtype"
    value {
      type: DT_INT32
    }
  }
  attr {
    key: "value"
    value {
      tensor {
        dtype: DT_INT32
        tensor_shape {
          dim {
            size: 1
          }
        }
        int_val: 1
      }
    }
  }
}
node {
  name: "gradients/cost/Mean_grad/Reshape"
  op: "Reshape"
  input: "gradients/Fill"
  input: "gradients/cost/Mean_grad/Reshape/shape"
  device: "/job:worker/task:0"
  attr {
    key: "T"
    value {
      type: DT_FLOAT
    }
  }
  attr {
    key: "Tshape"
    value {
      type: DT_INT32
    }
  }
  attr {
    key: "_output_shapes"
    value {
      list {
        shape {
          dim {
            size: 1
          }
        }
      }
    }
  }
}
node {
  name: "gradients/cost/Mean_grad/Shape"
  op: "Shape"
  input: "cost/softmax_cross_entropy_with_logits_sg/Reshape_2"
  device: "/job:worker/task:0"
  attr {
    key: "T"
    value {
      type: DT_FLOAT
    }
  }
  attr {
    key: "_output_shapes"
    value {
      list {
        shape {
          dim {
            size: 1
          }
        }
      }
    }
  }
  attr {
    key: "out_type"
    value {
      type: DT_INT32
    }
  }
}
node {
  name: "gradients/cost/Mean_grad/Tile"
  op: "Tile"
  input: "gradients/cost/Mean_grad/Reshape"
  input: "gradients/cost/Mean_grad/Shape"
  device: "/job:worker/task:0"
  attr {
    key: "T"
    value {
      type: DT_FLOAT
    }
  }
  attr {
    key: "Tmultiples"
    value {
      type: DT_INT32
    }
  }
  attr {
    key: "_output_shapes"
    value {
      list {
        shape {
          dim {
            size: -1
          }
        }
      }
    }
  }
}
node {
  name: "gradients/cost/Mean_grad/Shape_1"
  op: "Shape"
  input: "cost/softmax_cross_entropy_with_logits_sg/Reshape_2"
  device: "/job:worker/task:0"
  attr {
    key: "T"
    value {
      type: DT_FLOAT
    }
  }
  attr {
    key: "_output_shapes"
    value {
      list {
        shape {
          dim {
            size: 1
          }
        }
      }
    }
  }
  attr {
    key: "out_type"
    value {
      type: DT_INT32
    }
  }
}
node {
  name: "gradients/cost/Mean_grad/Shape_2"
  op: "Const"
  device: "/job:worker/task:0"
  attr {
    key: "_output_shapes"
    value {
      list {
        shape {
          dim {
          }
        }
      }
    }
  }
  attr {
    key: "dtype"
    value {
      type: DT_INT32
    }
  }
  attr {
    key: "value"
    value {
      tensor {
        dtype: DT_INT32
        tensor_shape {
          dim {
          }
        }
      }
    }
  }
}
node {
  name: "gradients/cost/Mean_grad/Const"
  op: "Const"
  device: "/job:worker/task:0"
  attr {
    key: "_output_shapes"
    value {
      list {
        shape {
          dim {
            size: 1
          }
        }
      }
    }
  }
  attr {
    key: "dtype"
    value {
      type: DT_INT32
    }
  }
  attr {
    key: "value"
    value {
      tensor {
        dtype: DT_INT32
        tensor_shape {
          dim {
            size: 1
          }
        }
        int_val: 0
      }
    }
  }
}
node {
  name: "gradients/cost/Mean_grad/Prod"
  op: "Prod"
  input: "gradients/cost/Mean_grad/Shape_1"
  input: "gradients/cost/Mean_grad/Const"
  device: "/job:worker/task:0"
  attr {
    key: "T"
    value {
      type: DT_INT32
    }
  }
  attr {
    key: "Tidx"
    value {
      type: DT_INT32
    }
  }
  attr {
    key: "_output_shapes"
    value {
      list {
        shape {
        }
      }
    }
  }
  attr {
    key: "keep_dims"
    value {
      b: false
    }
  }
}
node {
  name: "gradients/cost/Mean_grad/Const_1"
  op: "Const"
  device: "/job:worker/task:0"
  attr {
    key: "_output_shapes"
    value {
      list {
        shape {
          dim {
            size: 1
          }
        }
      }
    }
  }
  attr {
    key: "dtype"
    value {
      type: DT_INT32
    }
  }
  attr {
    key: "value"
    value {
      tensor {
        dtype: DT_INT32
        tensor_shape {
          dim {
            size: 1
          }
        }
        int_val: 0
      }
    }
  }
}
node {
  name: "gradients/cost/Mean_grad/Prod_1"
  op: "Prod"
  input: "gradients/cost/Mean_grad/Shape_2"
  input: "gradients/cost/Mean_grad/Const_1"
  device: "/job:worker/task:0"
  attr {
    key: "T"
    value {
      type: DT_INT32
    }
  }
  attr {
    key: "Tidx"
    value {
      type: DT_INT32
    }
  }
  attr {
    key: "_output_shapes"
    value {
      list {
        shape {
        }
      }
    }
  }
  attr {
    key: "keep_dims"
    value {
      b: false
    }
  }
}
node {
  name: "gradients/cost/Mean_grad/Maximum/y"
  op: "Const"
  device: "/job:worker/task:0"
  attr {
    key: "_output_shapes"
    value {
      list {
        shape {
        }
      }
    }
  }
  attr {
    key: "dtype"
    value {
      type: DT_INT32
    }
  }
  attr {
    key: "value"
    value {
      tensor {
        dtype: DT_INT32
        tensor_shape {
        }
        int_val: 1
      }
    }
  }
}
node {
  name: "gradients/cost/Mean_grad/Maximum"
  op: "Maximum"
  input: "gradients/cost/Mean_grad/Prod_1"
  input: "gradients/cost/Mean_grad/Maximum/y"
  device: "/job:worker/task:0"
  attr {
    key: "T"
    value {
      type: DT_INT32
    }
  }
  attr {
    key: "_output_shapes"
    value {
      list {
        shape {
        }
      }
    }
  }
}
node {
  name: "gradients/cost/Mean_grad/floordiv"
  op: "FloorDiv"
  input: "gradients/cost/Mean_grad/Prod"
  input: "gradients/cost/Mean_grad/Maximum"
  device: "/job:worker/task:0"
  attr {
    key: "T"
    value {
      type: DT_INT32
    }
  }
  attr {
    key: "_output_shapes"
    value {
      list {
        shape {
        }
      }
    }
  }
}
node {
  name: "gradients/cost/Mean_grad/Cast"
  op: "Cast"
  input: "gradients/cost/Mean_grad/floordiv"
  device: "/job:worker/task:0"
  attr {
    key: "DstT"
    value {
      type: DT_FLOAT
    }
  }
  attr {
    key: "SrcT"
    value {
      type: DT_INT32
    }
  }
  attr {
    key: "_output_shapes"
    value {
      list {
        shape {
        }
      }
    }
  }
}
node {
  name: "gradients/cost/Mean_grad/truediv"
  op: "RealDiv"
  input: "gradients/cost/Mean_grad/Tile"
  input: "gradients/cost/Mean_grad/Cast"
  device: "/job:worker/task:0"
  attr {
    key: "T"
    value {
      type: DT_FLOAT
    }
  }
  attr {
    key: "_output_shapes"
    value {
      list {
        shape {
          dim {
            size: -1
          }
        }
      }
    }
  }
}
node {
  name: "gradients/cost/softmax_cross_entropy_with_logits_sg/Reshape_2_grad/Shape"
  op: "Shape"
  input: "cost/softmax_cross_entropy_with_logits_sg"
  device: "/job:worker/task:0"
  attr {
    key: "T"
    value {
      type: DT_FLOAT
    }
  }
  attr {
    key: "_output_shapes"
    value {
      list {
        shape {
          dim {
            size: 1
          }
        }
      }
    }
  }
  attr {
    key: "out_type"
    value {
      type: DT_INT32
    }
  }
}
node {
  name: "gradients/cost/softmax_cross_entropy_with_logits_sg/Reshape_2_grad/Reshape"
  op: "Reshape"
  input: "gradients/cost/Mean_grad/truediv"
  input: "gradients/cost/softmax_cross_entropy_with_logits_sg/Reshape_2_grad/Shape"
  device: "/job:worker/task:0"
  attr {
    key: "T"
    value {
      type: DT_FLOAT
    }
  }
  attr {
    key: "Tshape"
    value {
      type: DT_INT32
    }
  }
  attr {
    key: "_output_shapes"
    value {
      list {
        shape {
          dim {
            size: -1
          }
        }
      }
    }
  }
}
node {
  name: "gradients/zeros_like"
  op: "ZerosLike"
  input: "cost/softmax_cross_entropy_with_logits_sg:1"
  device: "/job:worker/task:0"
  attr {
    key: "T"
    value {
      type: DT_FLOAT
    }
  }
  attr {
    key: "_output_shapes"
    value {
      list {
        shape {
          dim {
            size: -1
          }
          dim {
            size: -1
          }
        }
      }
    }
  }
}
node {
  name: "gradients/cost/softmax_cross_entropy_with_logits_sg_grad/ExpandDims/dim"
  op: "Const"
  device: "/job:worker/task:0"
  attr {
    key: "_output_shapes"
    value {
      list {
        shape {
        }
      }
    }
  }
  attr {
    key: "dtype"
    value {
      type: DT_INT32
    }
  }
  attr {
    key: "value"
    value {
      tensor {
        dtype: DT_INT32
        tensor_shape {
        }
        int_val: -1
      }
    }
  }
}
node {
  name: "gradients/cost/softmax_cross_entropy_with_logits_sg_grad/ExpandDims"
  op: "ExpandDims"
  input: "gradients/cost/softmax_cross_entropy_with_logits_sg/Reshape_2_grad/Reshape"
  input: "gradients/cost/softmax_cross_entropy_with_logits_sg_grad/ExpandDims/dim"
  device: "/job:worker/task:0"
  attr {
    key: "T"
    value {
      type: DT_FLOAT
    }
  }
  attr {
    key: "Tdim"
    value {
      type: DT_INT32
    }
  }
  attr {
    key: "_output_shapes"
    value {
      list {
        shape {
          dim {
            size: -1
          }
          dim {
            size: 1
          }
        }
      }
    }
  }
}
node {
  name: "gradients/cost/softmax_cross_entropy_with_logits_sg_grad/mul"
  op: "Mul"
  input: "gradients/cost/softmax_cross_entropy_with_logits_sg_grad/ExpandDims"
  input: "cost/softmax_cross_entropy_with_logits_sg:1"
  device: "/job:worker/task:0"
  attr {
    key: "T"
    value {
      type: DT_FLOAT
    }
  }
  attr {
    key: "_output_shapes"
    value {
      list {
        shape {
          dim {
            size: -1
          }
          dim {
            size: -1
          }
        }
      }
    }
  }
}
node {
  name: "gradients/cost/softmax_cross_entropy_with_logits_sg_grad/LogSoftmax"
  op: "LogSoftmax"
  input: "cost/softmax_cross_entropy_with_logits_sg/Reshape"
  device: "/job:worker/task:0"
  attr {
    key: "T"
    value {
      type: DT_FLOAT
    }
  }
  attr {
    key: "_output_shapes"
    value {
      list {
        shape {
          dim {
            size: -1
          }
          dim {
            size: -1
          }
        }
      }
    }
  }
}
node {
  name: "gradients/cost/softmax_cross_entropy_with_logits_sg_grad/Neg"
  op: "Neg"
  input: "gradients/cost/softmax_cross_entropy_with_logits_sg_grad/LogSoftmax"
  device: "/job:worker/task:0"
  attr {
    key: "T"
    value {
      type: DT_FLOAT
    }
  }
  attr {
    key: "_output_shapes"
    value {
      list {
        shape {
          dim {
            size: -1
          }
          dim {
            size: -1
          }
        }
      }
    }
  }
}
node {
  name: "gradients/cost/softmax_cross_entropy_with_logits_sg_grad/ExpandDims_1/dim"
  op: "Const"
  device: "/job:worker/task:0"
  attr {
    key: "_output_shapes"
    value {
      list {
        shape {
        }
      }
    }
  }
  attr {
    key: "dtype"
    value {
      type: DT_INT32
    }
  }
  attr {
    key: "value"
    value {
      tensor {
        dtype: DT_INT32
        tensor_shape {
        }
        int_val: -1
      }
    }
  }
}
node {
  name: "gradients/cost/softmax_cross_entropy_with_logits_sg_grad/ExpandDims_1"
  op: "ExpandDims"
  input: "gradients/cost/softmax_cross_entropy_with_logits_sg/Reshape_2_grad/Reshape"
  input: "gradients/cost/softmax_cross_entropy_with_logits_sg_grad/ExpandDims_1/dim"
  device: "/job:worker/task:0"
  attr {
    key: "T"
    value {
      type: DT_FLOAT
    }
  }
  attr {
    key: "Tdim"
    value {
      type: DT_INT32
    }
  }
  attr {
    key: "_output_shapes"
    value {
      list {
        shape {
          dim {
            size: -1
          }
          dim {
            size: 1
          }
        }
      }
    }
  }
}
node {
  name: "gradients/cost/softmax_cross_entropy_with_logits_sg_grad/mul_1"
  op: "Mul"
  input: "gradients/cost/softmax_cross_entropy_with_logits_sg_grad/ExpandDims_1"
  input: "gradients/cost/softmax_cross_entropy_with_logits_sg_grad/Neg"
  device: "/job:worker/task:0"
  attr {
    key: "T"
    value {
      type: DT_FLOAT
    }
  }
  attr {
    key: "_output_shapes"
    value {
      list {
        shape {
          dim {
            size: -1
          }
          dim {
            size: -1
          }
        }
      }
    }
  }
}
node {
  name: "gradients/cost/softmax_cross_entropy_with_logits_sg_grad/tuple/group_deps"
  op: "NoOp"
  input: "^gradients/cost/softmax_cross_entropy_with_logits_sg_grad/mul"
  input: "^gradients/cost/softmax_cross_entropy_with_logits_sg_grad/mul_1"
  device: "/job:worker/task:0"
}
node {
  name: "gradients/cost/softmax_cross_entropy_with_logits_sg_grad/tuple/control_dependency"
  op: "Identity"
  input: "gradients/cost/softmax_cross_entropy_with_logits_sg_grad/mul"
  input: "^gradients/cost/softmax_cross_entropy_with_logits_sg_grad/tuple/group_deps"
  device: "/job:worker/task:0"
  attr {
    key: "T"
    value {
      type: DT_FLOAT
    }
  }
  attr {
    key: "_class"
    value {
      list {
        s: "loc:@gradients/cost/softmax_cross_entropy_with_logits_sg_grad/mul"
      }
    }
  }
  attr {
    key: "_output_shapes"
    value {
      list {
        shape {
          dim {
            size: -1
          }
          dim {
            size: -1
          }
        }
      }
    }
  }
}
node {
  name: "gradients/cost/softmax_cross_entropy_with_logits_sg_grad/tuple/control_dependency_1"
  op: "Identity"
  input: "gradients/cost/softmax_cross_entropy_with_logits_sg_grad/mul_1"
  input: "^gradients/cost/softmax_cross_entropy_with_logits_sg_grad/tuple/group_deps"
  device: "/job:worker/task:0"
  attr {
    key: "T"
    value {
      type: DT_FLOAT
    }
  }
  attr {
    key: "_class"
    value {
      list {
        s: "loc:@gradients/cost/softmax_cross_entropy_with_logits_sg_grad/mul_1"
      }
    }
  }
  attr {
    key: "_output_shapes"
    value {
      list {
        shape {
          dim {
            size: -1
          }
          dim {
            size: -1
          }
        }
      }
    }
  }
}
node {
  name: "gradients/cost/softmax_cross_entropy_with_logits_sg/Reshape_grad/Shape"
  op: "Shape"
  input: "output/Add"
  device: "/job:worker/task:0"
  attr {
    key: "T"
    value {
      type: DT_FLOAT
    }
  }
  attr {
    key: "_output_shapes"
    value {
      list {
        shape {
          dim {
            size: 2
          }
        }
      }
    }
  }
  attr {
    key: "out_type"
    value {
      type: DT_INT32
    }
  }
}
node {
  name: "gradients/cost/softmax_cross_entropy_with_logits_sg/Reshape_grad/Reshape"
  op: "Reshape"
  input: "gradients/cost/softmax_cross_entropy_with_logits_sg_grad/tuple/control_dependency"
  input: "gradients/cost/softmax_cross_entropy_with_logits_sg/Reshape_grad/Shape"
  device: "/job:worker/task:0"
  attr {
    key: "T"
    value {
      type: DT_FLOAT
    }
  }
  attr {
    key: "Tshape"
    value {
      type: DT_INT32
    }
  }
  attr {
    key: "_output_shapes"
    value {
      list {
        shape {
          dim {
            size: -1
          }
          dim {
            size: 10
          }
        }
      }
    }
  }
}
node {
  name: "gradients/output/Add_grad/Shape"
  op: "Shape"
  input: "output/MatMul"
  device: "/job:worker/task:0"
  attr {
    key: "T"
    value {
      type: DT_FLOAT
    }
  }
  attr {
    key: "_output_shapes"
    value {
      list {
        shape {
          dim {
            size: 2
          }
        }
      }
    }
  }
  attr {
    key: "out_type"
    value {
      type: DT_INT32
    }
  }
}
node {
  name: "gradients/output/Add_grad/Shape_1"
  op: "Const"
  device: "/job:worker/task:0"
  attr {
    key: "_output_shapes"
    value {
      list {
        shape {
          dim {
            size: 1
          }
        }
      }
    }
  }
  attr {
    key: "dtype"
    value {
      type: DT_INT32
    }
  }
  attr {
    key: "value"
    value {
      tensor {
        dtype: DT_INT32
        tensor_shape {
          dim {
            size: 1
          }
        }
        int_val: 10
      }
    }
  }
}
node {
  name: "gradients/output/Add_grad/BroadcastGradientArgs"
  op: "BroadcastGradientArgs"
  input: "gradients/output/Add_grad/Shape"
  input: "gradients/output/Add_grad/Shape_1"
  device: "/job:worker/task:0"
  attr {
    key: "T"
    value {
      type: DT_INT32
    }
  }
  attr {
    key: "_output_shapes"
    value {
      list {
        shape {
          dim {
            size: -1
          }
        }
        shape {
          dim {
            size: -1
          }
        }
      }
    }
  }
}
node {
  name: "gradients/output/Add_grad/Sum"
  op: "Sum"
  input: "gradients/cost/softmax_cross_entropy_with_logits_sg/Reshape_grad/Reshape"
  input: "gradients/output/Add_grad/BroadcastGradientArgs"
  device: "/job:worker/task:0"
  attr {
    key: "T"
    value {
      type: DT_FLOAT
    }
  }
  attr {
    key: "Tidx"
    value {
      type: DT_INT32
    }
  }
  attr {
    key: "_output_shapes"
    value {
      list {
        shape {
          unknown_rank: true
        }
      }
    }
  }
  attr {
    key: "keep_dims"
    value {
      b: false
    }
  }
}
node {
  name: "gradients/output/Add_grad/Reshape"
  op: "Reshape"
  input: "gradients/output/Add_grad/Sum"
  input: "gradients/output/Add_grad/Shape"
  device: "/job:worker/task:0"
  attr {
    key: "T"
    value {
      type: DT_FLOAT
    }
  }
  attr {
    key: "Tshape"
    value {
      type: DT_INT32
    }
  }
  attr {
    key: "_output_shapes"
    value {
      list {
        shape {
          dim {
            size: -1
          }
          dim {
            size: 10
          }
        }
      }
    }
  }
}
node {
  name: "gradients/output/Add_grad/Sum_1"
  op: "Sum"
  input: "gradients/cost/softmax_cross_entropy_with_logits_sg/Reshape_grad/Reshape"
  input: "gradients/output/Add_grad/BroadcastGradientArgs:1"
  device: "/job:worker/task:0"
  attr {
    key: "T"
    value {
      type: DT_FLOAT
    }
  }
  attr {
    key: "Tidx"
    value {
      type: DT_INT32
    }
  }
  attr {
    key: "_output_shapes"
    value {
      list {
        shape {
          unknown_rank: true
        }
      }
    }
  }
  attr {
    key: "keep_dims"
    value {
      b: false
    }
  }
}
node {
  name: "gradients/output/Add_grad/Reshape_1"
  op: "Reshape"
  input: "gradients/output/Add_grad/Sum_1"
  input: "gradients/output/Add_grad/Shape_1"
  device: "/job:worker/task:0"
  attr {
    key: "T"
    value {
      type: DT_FLOAT
    }
  }
  attr {
    key: "Tshape"
    value {
      type: DT_INT32
    }
  }
  attr {
    key: "_output_shapes"
    value {
      list {
        shape {
          dim {
            size: 10
          }
        }
      }
    }
  }
}
node {
  name: "gradients/output/Add_grad/tuple/group_deps"
  op: "NoOp"
  input: "^gradients/output/Add_grad/Reshape"
  input: "^gradients/output/Add_grad/Reshape_1"
  device: "/job:worker/task:0"
}
node {
  name: "gradients/output/Add_grad/tuple/control_dependency"
  op: "Identity"
  input: "gradients/output/Add_grad/Reshape"
  input: "^gradients/output/Add_grad/tuple/group_deps"
  device: "/job:worker/task:0"
  attr {
    key: "T"
    value {
      type: DT_FLOAT
    }
  }
  attr {
    key: "_class"
    value {
      list {
        s: "loc:@gradients/output/Add_grad/Reshape"
      }
    }
  }
  attr {
    key: "_output_shapes"
    value {
      list {
        shape {
          dim {
            size: -1
          }
          dim {
            size: 10
          }
        }
      }
    }
  }
}
node {
  name: "gradients/output/Add_grad/tuple/control_dependency_1"
  op: "Identity"
  input: "gradients/output/Add_grad/Reshape_1"
  input: "^gradients/output/Add_grad/tuple/group_deps"
  device: "/job:worker/task:0"
  attr {
    key: "T"
    value {
      type: DT_FLOAT
    }
  }
  attr {
    key: "_class"
    value {
      list {
        s: "loc:@gradients/output/Add_grad/Reshape_1"
      }
    }
  }
  attr {
    key: "_output_shapes"
    value {
      list {
        shape {
          dim {
            size: 10
          }
        }
      }
    }
  }
}
node {
  name: "gradients/output/MatMul_grad/MatMul"
  op: "MatMul"
  input: "gradients/output/Add_grad/tuple/control_dependency"
  input: "Variable_3/read"
  device: "/job:worker/task:0"
  attr {
    key: "T"
    value {
      type: DT_FLOAT
    }
  }
  attr {
    key: "_output_shapes"
    value {
      list {
        shape {
          dim {
            size: -1
          }
          dim {
            size: 1024
          }
        }
      }
    }
  }
  attr {
    key: "transpose_a"
    value {
      b: false
    }
  }
  attr {
    key: "transpose_b"
    value {
      b: true
    }
  }
}
node {
  name: "gradients/output/MatMul_grad/MatMul_1"
  op: "MatMul"
  input: "fully_connected1/dropout/mul"
  input: "gradients/output/Add_grad/tuple/control_dependency"
  device: "/job:worker/task:0"
  attr {
    key: "T"
    value {
      type: DT_FLOAT
    }
  }
  attr {
    key: "_output_shapes"
    value {
      list {
        shape {
          dim {
            size: 1024
          }
          dim {
            size: 10
          }
        }
      }
    }
  }
  attr {
    key: "transpose_a"
    value {
      b: true
    }
  }
  attr {
    key: "transpose_b"
    value {
      b: false
    }
  }
}
node {
  name: "gradients/output/MatMul_grad/tuple/group_deps"
  op: "NoOp"
  input: "^gradients/output/MatMul_grad/MatMul"
  input: "^gradients/output/MatMul_grad/MatMul_1"
  device: "/job:worker/task:0"
}
node {
  name: "gradients/output/MatMul_grad/tuple/control_dependency"
  op: "Identity"
  input: "gradients/output/MatMul_grad/MatMul"
  input: "^gradients/output/MatMul_grad/tuple/group_deps"
  device: "/job:worker/task:0"
  attr {
    key: "T"
    value {
      type: DT_FLOAT
    }
  }
  attr {
    key: "_class"
    value {
      list {
        s: "loc:@gradients/output/MatMul_grad/MatMul"
      }
    }
  }
  attr {
    key: "_output_shapes"
    value {
      list {
        shape {
          dim {
            size: -1
          }
          dim {
            size: 1024
          }
        }
      }
    }
  }
}
node {
  name: "gradients/output/MatMul_grad/tuple/control_dependency_1"
  op: "Identity"
  input: "gradients/output/MatMul_grad/MatMul_1"
  input: "^gradients/output/MatMul_grad/tuple/group_deps"
  device: "/job:worker/task:0"
  attr {
    key: "T"
    value {
      type: DT_FLOAT
    }
  }
  attr {
    key: "_class"
    value {
      list {
        s: "loc:@gradients/output/MatMul_grad/MatMul_1"
      }
    }
  }
  attr {
    key: "_output_shapes"
    value {
      list {
        shape {
          dim {
            size: 1024
          }
          dim {
            size: 10
          }
        }
      }
    }
  }
}
node {
  name: "gradients/fully_connected1/dropout/mul_grad/Shape"
  op: "Shape"
  input: "fully_connected1/dropout/div"
  device: "/job:worker/task:0"
  attr {
    key: "T"
    value {
      type: DT_FLOAT
    }
  }
  attr {
    key: "_output_shapes"
    value {
      list {
        shape {
          dim {
            size: -1
          }
        }
      }
    }
  }
  attr {
    key: "out_type"
    value {
      type: DT_INT32
    }
  }
}
node {
  name: "gradients/fully_connected1/dropout/mul_grad/Shape_1"
  op: "Shape"
  input: "fully_connected1/dropout/Floor"
  device: "/job:worker/task:0"
  attr {
    key: "T"
    value {
      type: DT_FLOAT
    }
  }
  attr {
    key: "_output_shapes"
    value {
      list {
        shape {
          dim {
            size: -1
          }
        }
      }
    }
  }
  attr {
    key: "out_type"
    value {
      type: DT_INT32
    }
  }
}
node {
  name: "gradients/fully_connected1/dropout/mul_grad/BroadcastGradientArgs"
  op: "BroadcastGradientArgs"
  input: "gradients/fully_connected1/dropout/mul_grad/Shape"
  input: "gradients/fully_connected1/dropout/mul_grad/Shape_1"
  device: "/job:worker/task:0"
  attr {
    key: "T"
    value {
      type: DT_INT32
    }
  }
  attr {
    key: "_output_shapes"
    value {
      list {
        shape {
          dim {
            size: -1
          }
        }
        shape {
          dim {
            size: -1
          }
        }
      }
    }
  }
}
node {
  name: "gradients/fully_connected1/dropout/mul_grad/Mul"
  op: "Mul"
  input: "gradients/output/MatMul_grad/tuple/control_dependency"
  input: "fully_connected1/dropout/Floor"
  device: "/job:worker/task:0"
  attr {
    key: "T"
    value {
      type: DT_FLOAT
    }
  }
  attr {
    key: "_output_shapes"
    value {
      list {
        shape {
          unknown_rank: true
        }
      }
    }
  }
}
node {
  name: "gradients/fully_connected1/dropout/mul_grad/Sum"
  op: "Sum"
  input: "gradients/fully_connected1/dropout/mul_grad/Mul"
  input: "gradients/fully_connected1/dropout/mul_grad/BroadcastGradientArgs"
  device: "/job:worker/task:0"
  attr {
    key: "T"
    value {
      type: DT_FLOAT
    }
  }
  attr {
    key: "Tidx"
    value {
      type: DT_INT32
    }
  }
  attr {
    key: "_output_shapes"
    value {
      list {
        shape {
          unknown_rank: true
        }
      }
    }
  }
  attr {
    key: "keep_dims"
    value {
      b: false
    }
  }
}
node {
  name: "gradients/fully_connected1/dropout/mul_grad/Reshape"
  op: "Reshape"
  input: "gradients/fully_connected1/dropout/mul_grad/Sum"
  input: "gradients/fully_connected1/dropout/mul_grad/Shape"
  device: "/job:worker/task:0"
  attr {
    key: "T"
    value {
      type: DT_FLOAT
    }
  }
  attr {
    key: "Tshape"
    value {
      type: DT_INT32
    }
  }
  attr {
    key: "_output_shapes"
    value {
      list {
        shape {
          unknown_rank: true
        }
      }
    }
  }
}
node {
  name: "gradients/fully_connected1/dropout/mul_grad/Mul_1"
  op: "Mul"
  input: "fully_connected1/dropout/div"
  input: "gradients/output/MatMul_grad/tuple/control_dependency"
  device: "/job:worker/task:0"
  attr {
    key: "T"
    value {
      type: DT_FLOAT
    }
  }
  attr {
    key: "_output_shapes"
    value {
      list {
        shape {
          unknown_rank: true
        }
      }
    }
  }
}
node {
  name: "gradients/fully_connected1/dropout/mul_grad/Sum_1"
  op: "Sum"
  input: "gradients/fully_connected1/dropout/mul_grad/Mul_1"
  input: "gradients/fully_connected1/dropout/mul_grad/BroadcastGradientArgs:1"
  device: "/job:worker/task:0"
  attr {
    key: "T"
    value {
      type: DT_FLOAT
    }
  }
  attr {
    key: "Tidx"
    value {
      type: DT_INT32
    }
  }
  attr {
    key: "_output_shapes"
    value {
      list {
        shape {
          unknown_rank: true
        }
      }
    }
  }
  attr {
    key: "keep_dims"
    value {
      b: false
    }
  }
}
node {
  name: "gradients/fully_connected1/dropout/mul_grad/Reshape_1"
  op: "Reshape"
  input: "gradients/fully_connected1/dropout/mul_grad/Sum_1"
  input: "gradients/fully_connected1/dropout/mul_grad/Shape_1"
  device: "/job:worker/task:0"
  attr {
    key: "T"
    value {
      type: DT_FLOAT
    }
  }
  attr {
    key: "Tshape"
    value {
      type: DT_INT32
    }
  }
  attr {
    key: "_output_shapes"
    value {
      list {
        shape {
          unknown_rank: true
        }
      }
    }
  }
}
node {
  name: "gradients/fully_connected1/dropout/mul_grad/tuple/group_deps"
  op: "NoOp"
  input: "^gradients/fully_connected1/dropout/mul_grad/Reshape"
  input: "^gradients/fully_connected1/dropout/mul_grad/Reshape_1"
  device: "/job:worker/task:0"
}
node {
  name: "gradients/fully_connected1/dropout/mul_grad/tuple/control_dependency"
  op: "Identity"
  input: "gradients/fully_connected1/dropout/mul_grad/Reshape"
  input: "^gradients/fully_connected1/dropout/mul_grad/tuple/group_deps"
  device: "/job:worker/task:0"
  attr {
    key: "T"
    value {
      type: DT_FLOAT
    }
  }
  attr {
    key: "_class"
    value {
      list {
        s: "loc:@gradients/fully_connected1/dropout/mul_grad/Reshape"
      }
    }
  }
  attr {
    key: "_output_shapes"
    value {
      list {
        shape {
          unknown_rank: true
        }
      }
    }
  }
}
node {
  name: "gradients/fully_connected1/dropout/mul_grad/tuple/control_dependency_1"
  op: "Identity"
  input: "gradients/fully_connected1/dropout/mul_grad/Reshape_1"
  input: "^gradients/fully_connected1/dropout/mul_grad/tuple/group_deps"
  device: "/job:worker/task:0"
  attr {
    key: "T"
    value {
      type: DT_FLOAT
    }
  }
  attr {
    key: "_class"
    value {
      list {
        s: "loc:@gradients/fully_connected1/dropout/mul_grad/Reshape_1"
      }
    }
  }
  attr {
    key: "_output_shapes"
    value {
      list {
        shape {
          unknown_rank: true
        }
      }
    }
  }
}
node {
  name: "gradients/fully_connected1/dropout/div_grad/Shape"
  op: "Shape"
  input: "fully_connected1/Relu"
  device: "/job:worker/task:0"
  attr {
    key: "T"
    value {
      type: DT_FLOAT
    }
  }
  attr {
    key: "_output_shapes"
    value {
      list {
        shape {
          dim {
            size: 2
          }
        }
      }
    }
  }
  attr {
    key: "out_type"
    value {
      type: DT_INT32
    }
  }
}
node {
  name: "gradients/fully_connected1/dropout/div_grad/Shape_1"
  op: "Shape"
  input: "Placeholder_2"
  device: "/job:worker/task:0"
  attr {
    key: "T"
    value {
      type: DT_FLOAT
    }
  }
  attr {
    key: "_output_shapes"
    value {
      list {
        shape {
          dim {
            size: -1
          }
        }
      }
    }
  }
  attr {
    key: "out_type"
    value {
      type: DT_INT32
    }
  }
}
node {
  name: "gradients/fully_connected1/dropout/div_grad/BroadcastGradientArgs"
  op: "BroadcastGradientArgs"
  input: "gradients/fully_connected1/dropout/div_grad/Shape"
  input: "gradients/fully_connected1/dropout/div_grad/Shape_1"
  device: "/job:worker/task:0"
  attr {
    key: "T"
    value {
      type: DT_INT32
    }
  }
  attr {
    key: "_output_shapes"
    value {
      list {
        shape {
          dim {
            size: -1
          }
        }
        shape {
          dim {
            size: -1
          }
        }
      }
    }
  }
}
node {
  name: "gradients/fully_connected1/dropout/div_grad/RealDiv"
  op: "RealDiv"
  input: "gradients/fully_connected1/dropout/mul_grad/tuple/control_dependency"
  input: "Placeholder_2"
  device: "/job:worker/task:0"
  attr {
    key: "T"
    value {
      type: DT_FLOAT
    }
  }
  attr {
    key: "_output_shapes"
    value {
      list {
        shape {
          unknown_rank: true
        }
      }
    }
  }
}
node {
  name: "gradients/fully_connected1/dropout/div_grad/Sum"
  op: "Sum"
  input: "gradients/fully_connected1/dropout/div_grad/RealDiv"
  input: "gradients/fully_connected1/dropout/div_grad/BroadcastGradientArgs"
  device: "/job:worker/task:0"
  attr {
    key: "T"
    value {
      type: DT_FLOAT
    }
  }
  attr {
    key: "Tidx"
    value {
      type: DT_INT32
    }
  }
  attr {
    key: "_output_shapes"
    value {
      list {
        shape {
          unknown_rank: true
        }
      }
    }
  }
  attr {
    key: "keep_dims"
    value {
      b: false
    }
  }
}
node {
  name: "gradients/fully_connected1/dropout/div_grad/Reshape"
  op: "Reshape"
  input: "gradients/fully_connected1/dropout/div_grad/Sum"
  input: "gradients/fully_connected1/dropout/div_grad/Shape"
  device: "/job:worker/task:0"
  attr {
    key: "T"
    value {
      type: DT_FLOAT
    }
  }
  attr {
    key: "Tshape"
    value {
      type: DT_INT32
    }
  }
  attr {
    key: "_output_shapes"
    value {
      list {
        shape {
          dim {
            size: -1
          }
          dim {
            size: 1024
          }
        }
      }
    }
  }
}
node {
  name: "gradients/fully_connected1/dropout/div_grad/Neg"
  op: "Neg"
  input: "fully_connected1/Relu"
  device: "/job:worker/task:0"
  attr {
    key: "T"
    value {
      type: DT_FLOAT
    }
  }
  attr {
    key: "_output_shapes"
    value {
      list {
        shape {
          dim {
            size: -1
          }
          dim {
            size: 1024
          }
        }
      }
    }
  }
}
node {
  name: "gradients/fully_connected1/dropout/div_grad/RealDiv_1"
  op: "RealDiv"
  input: "gradients/fully_connected1/dropout/div_grad/Neg"
  input: "Placeholder_2"
  device: "/job:worker/task:0"
  attr {
    key: "T"
    value {
      type: DT_FLOAT
    }
  }
  attr {
    key: "_output_shapes"
    value {
      list {
        shape {
          unknown_rank: true
        }
      }
    }
  }
}
node {
  name: "gradients/fully_connected1/dropout/div_grad/RealDiv_2"
  op: "RealDiv"
  input: "gradients/fully_connected1/dropout/div_grad/RealDiv_1"
  input: "Placeholder_2"
  device: "/job:worker/task:0"
  attr {
    key: "T"
    value {
      type: DT_FLOAT
    }
  }
  attr {
    key: "_output_shapes"
    value {
      list {
        shape {
          unknown_rank: true
        }
      }
    }
  }
}
node {
  name: "gradients/fully_connected1/dropout/div_grad/mul"
  op: "Mul"
  input: "gradients/fully_connected1/dropout/mul_grad/tuple/control_dependency"
  input: "gradients/fully_connected1/dropout/div_grad/RealDiv_2"
  device: "/job:worker/task:0"
  attr {
    key: "T"
    value {
      type: DT_FLOAT
    }
  }
  attr {
    key: "_output_shapes"
    value {
      list {
        shape {
          unknown_rank: true
        }
      }
    }
  }
}
node {
  name: "gradients/fully_connected1/dropout/div_grad/Sum_1"
  op: "Sum"
  input: "gradients/fully_connected1/dropout/div_grad/mul"
  input: "gradients/fully_connected1/dropout/div_grad/BroadcastGradientArgs:1"
  device: "/job:worker/task:0"
  attr {
    key: "T"
    value {
      type: DT_FLOAT
    }
  }
  attr {
    key: "Tidx"
    value {
      type: DT_INT32
    }
  }
  attr {
    key: "_output_shapes"
    value {
      list {
        shape {
          unknown_rank: true
        }
      }
    }
  }
  attr {
    key: "keep_dims"
    value {
      b: false
    }
  }
}
node {
  name: "gradients/fully_connected1/dropout/div_grad/Reshape_1"
  op: "Reshape"
  input: "gradients/fully_connected1/dropout/div_grad/Sum_1"
  input: "gradients/fully_connected1/dropout/div_grad/Shape_1"
  device: "/job:worker/task:0"
  attr {
    key: "T"
    value {
      type: DT_FLOAT
    }
  }
  attr {
    key: "Tshape"
    value {
      type: DT_INT32
    }
  }
  attr {
    key: "_output_shapes"
    value {
      list {
        shape {
          unknown_rank: true
        }
      }
    }
  }
}
node {
  name: "gradients/fully_connected1/dropout/div_grad/tuple/group_deps"
  op: "NoOp"
  input: "^gradients/fully_connected1/dropout/div_grad/Reshape"
  input: "^gradients/fully_connected1/dropout/div_grad/Reshape_1"
  device: "/job:worker/task:0"
}
node {
  name: "gradients/fully_connected1/dropout/div_grad/tuple/control_dependency"
  op: "Identity"
  input: "gradients/fully_connected1/dropout/div_grad/Reshape"
  input: "^gradients/fully_connected1/dropout/div_grad/tuple/group_deps"
  device: "/job:worker/task:0"
  attr {
    key: "T"
    value {
      type: DT_FLOAT
    }
  }
  attr {
    key: "_class"
    value {
      list {
        s: "loc:@gradients/fully_connected1/dropout/div_grad/Reshape"
      }
    }
  }
  attr {
    key: "_output_shapes"
    value {
      list {
        shape {
          dim {
            size: -1
          }
          dim {
            size: 1024
          }
        }
      }
    }
  }
}
node {
  name: "gradients/fully_connected1/dropout/div_grad/tuple/control_dependency_1"
  op: "Identity"
  input: "gradients/fully_connected1/dropout/div_grad/Reshape_1"
  input: "^gradients/fully_connected1/dropout/div_grad/tuple/group_deps"
  device: "/job:worker/task:0"
  attr {
    key: "T"
    value {
      type: DT_FLOAT
    }
  }
  attr {
    key: "_class"
    value {
      list {
        s: "loc:@gradients/fully_connected1/dropout/div_grad/Reshape_1"
      }
    }
  }
  attr {
    key: "_output_shapes"
    value {
      list {
        shape {
          unknown_rank: true
        }
      }
    }
  }
}
node {
  name: "gradients/fully_connected1/Relu_grad/ReluGrad"
  op: "ReluGrad"
  input: "gradients/fully_connected1/dropout/div_grad/tuple/control_dependency"
  input: "fully_connected1/Relu"
  device: "/job:worker/task:0"
  attr {
    key: "T"
    value {
      type: DT_FLOAT
    }
  }
  attr {
    key: "_output_shapes"
    value {
      list {
        shape {
          dim {
            size: -1
          }
          dim {
            size: 1024
          }
        }
      }
    }
  }
}
node {
  name: "gradients/fully_connected1/Add_grad/Shape"
  op: "Shape"
  input: "fully_connected1/MatMul"
  device: "/job:worker/task:0"
  attr {
    key: "T"
    value {
      type: DT_FLOAT
    }
  }
  attr {
    key: "_output_shapes"
    value {
      list {
        shape {
          dim {
            size: 2
          }
        }
      }
    }
  }
  attr {
    key: "out_type"
    value {
      type: DT_INT32
    }
  }
}
node {
  name: "gradients/fully_connected1/Add_grad/Shape_1"
  op: "Const"
  device: "/job:worker/task:0"
  attr {
    key: "_output_shapes"
    value {
      list {
        shape {
          dim {
            size: 1
          }
        }
      }
    }
  }
  attr {
    key: "dtype"
    value {
      type: DT_INT32
    }
  }
  attr {
    key: "value"
    value {
      tensor {
        dtype: DT_INT32
        tensor_shape {
          dim {
            size: 1
          }
        }
        int_val: 1024
      }
    }
  }
}
node {
  name: "gradients/fully_connected1/Add_grad/BroadcastGradientArgs"
  op: "BroadcastGradientArgs"
  input: "gradients/fully_connected1/Add_grad/Shape"
  input: "gradients/fully_connected1/Add_grad/Shape_1"
  device: "/job:worker/task:0"
  attr {
    key: "T"
    value {
      type: DT_INT32
    }
  }
  attr {
    key: "_output_shapes"
    value {
      list {
        shape {
          dim {
            size: -1
          }
        }
        shape {
          dim {
            size: -1
          }
        }
      }
    }
  }
}
node {
  name: "gradients/fully_connected1/Add_grad/Sum"
  op: "Sum"
  input: "gradients/fully_connected1/Relu_grad/ReluGrad"
  input: "gradients/fully_connected1/Add_grad/BroadcastGradientArgs"
  device: "/job:worker/task:0"
  attr {
    key: "T"
    value {
      type: DT_FLOAT
    }
  }
  attr {
    key: "Tidx"
    value {
      type: DT_INT32
    }
  }
  attr {
    key: "_output_shapes"
    value {
      list {
        shape {
          unknown_rank: true
        }
      }
    }
  }
  attr {
    key: "keep_dims"
    value {
      b: false
    }
  }
}
node {
  name: "gradients/fully_connected1/Add_grad/Reshape"
  op: "Reshape"
  input: "gradients/fully_connected1/Add_grad/Sum"
  input: "gradients/fully_connected1/Add_grad/Shape"
  device: "/job:worker/task:0"
  attr {
    key: "T"
    value {
      type: DT_FLOAT
    }
  }
  attr {
    key: "Tshape"
    value {
      type: DT_INT32
    }
  }
  attr {
    key: "_output_shapes"
    value {
      list {
        shape {
          dim {
            size: -1
          }
          dim {
            size: 1024
          }
        }
      }
    }
  }
}
node {
  name: "gradients/fully_connected1/Add_grad/Sum_1"
  op: "Sum"
  input: "gradients/fully_connected1/Relu_grad/ReluGrad"
  input: "gradients/fully_connected1/Add_grad/BroadcastGradientArgs:1"
  device: "/job:worker/task:0"
  attr {
    key: "T"
    value {
      type: DT_FLOAT
    }
  }
  attr {
    key: "Tidx"
    value {
      type: DT_INT32
    }
  }
  attr {
    key: "_output_shapes"
    value {
      list {
        shape {
          unknown_rank: true
        }
      }
    }
  }
  attr {
    key: "keep_dims"
    value {
      b: false
    }
  }
}
node {
  name: "gradients/fully_connected1/Add_grad/Reshape_1"
  op: "Reshape"
  input: "gradients/fully_connected1/Add_grad/Sum_1"
  input: "gradients/fully_connected1/Add_grad/Shape_1"
  device: "/job:worker/task:0"
  attr {
    key: "T"
    value {
      type: DT_FLOAT
    }
  }
  attr {
    key: "Tshape"
    value {
      type: DT_INT32
    }
  }
  attr {
    key: "_output_shapes"
    value {
      list {
        shape {
          dim {
            size: 1024
          }
        }
      }
    }
  }
}
node {
  name: "gradients/fully_connected1/Add_grad/tuple/group_deps"
  op: "NoOp"
  input: "^gradients/fully_connected1/Add_grad/Reshape"
  input: "^gradients/fully_connected1/Add_grad/Reshape_1"
  device: "/job:worker/task:0"
}
node {
  name: "gradients/fully_connected1/Add_grad/tuple/control_dependency"
  op: "Identity"
  input: "gradients/fully_connected1/Add_grad/Reshape"
  input: "^gradients/fully_connected1/Add_grad/tuple/group_deps"
  device: "/job:worker/task:0"
  attr {
    key: "T"
    value {
      type: DT_FLOAT
    }
  }
  attr {
    key: "_class"
    value {
      list {
        s: "loc:@gradients/fully_connected1/Add_grad/Reshape"
      }
    }
  }
  attr {
    key: "_output_shapes"
    value {
      list {
        shape {
          dim {
            size: -1
          }
          dim {
            size: 1024
          }
        }
      }
    }
  }
}
node {
  name: "gradients/fully_connected1/Add_grad/tuple/control_dependency_1"
  op: "Identity"
  input: "gradients/fully_connected1/Add_grad/Reshape_1"
  input: "^gradients/fully_connected1/Add_grad/tuple/group_deps"
  device: "/job:worker/task:0"
  attr {
    key: "T"
    value {
      type: DT_FLOAT
    }
  }
  attr {
    key: "_class"
    value {
      list {
        s: "loc:@gradients/fully_connected1/Add_grad/Reshape_1"
      }
    }
  }
  attr {
    key: "_output_shapes"
    value {
      list {
        shape {
          dim {
            size: 1024
          }
        }
      }
    }
  }
}
node {
  name: "gradients/fully_connected1/MatMul_grad/MatMul"
  op: "MatMul"
  input: "gradients/fully_connected1/Add_grad/tuple/control_dependency"
  input: "Variable_2/read"
  device: "/job:worker/task:0"
  attr {
    key: "T"
    value {
      type: DT_FLOAT
    }
  }
  attr {
    key: "_output_shapes"
    value {
      list {
        shape {
          dim {
            size: -1
          }
          dim {
            size: 6272
          }
        }
      }
    }
  }
  attr {
    key: "transpose_a"
    value {
      b: false
    }
  }
  attr {
    key: "transpose_b"
    value {
      b: true
    }
  }
}
node {
  name: "gradients/fully_connected1/MatMul_grad/MatMul_1"
  op: "MatMul"
  input: "fully_connected1/Reshape"
  input: "gradients/fully_connected1/Add_grad/tuple/control_dependency"
  device: "/job:worker/task:0"
  attr {
    key: "T"
    value {
      type: DT_FLOAT
    }
  }
  attr {
    key: "_output_shapes"
    value {
      list {
        shape {
          dim {
            size: 6272
          }
          dim {
            size: 1024
          }
        }
      }
    }
  }
  attr {
    key: "transpose_a"
    value {
      b: true
    }
  }
  attr {
    key: "transpose_b"
    value {
      b: false
    }
  }
}
node {
  name: "gradients/fully_connected1/MatMul_grad/tuple/group_deps"
  op: "NoOp"
  input: "^gradients/fully_connected1/MatMul_grad/MatMul"
  input: "^gradients/fully_connected1/MatMul_grad/MatMul_1"
  device: "/job:worker/task:0"
}
node {
  name: "gradients/fully_connected1/MatMul_grad/tuple/control_dependency"
  op: "Identity"
  input: "gradients/fully_connected1/MatMul_grad/MatMul"
  input: "^gradients/fully_connected1/MatMul_grad/tuple/group_deps"
  device: "/job:worker/task:0"
  attr {
    key: "T"
    value {
      type: DT_FLOAT
    }
  }
  attr {
    key: "_class"
    value {
      list {
        s: "loc:@gradients/fully_connected1/MatMul_grad/MatMul"
      }
    }
  }
  attr {
    key: "_output_shapes"
    value {
      list {
        shape {
          dim {
            size: -1
          }
          dim {
            size: 6272
          }
        }
      }
    }
  }
}
node {
  name: "gradients/fully_connected1/MatMul_grad/tuple/control_dependency_1"
  op: "Identity"
  input: "gradients/fully_connected1/MatMul_grad/MatMul_1"
  input: "^gradients/fully_connected1/MatMul_grad/tuple/group_deps"
  device: "/job:worker/task:0"
  attr {
    key: "T"
    value {
      type: DT_FLOAT
    }
  }
  attr {
    key: "_class"
    value {
      list {
        s: "loc:@gradients/fully_connected1/MatMul_grad/MatMul_1"
      }
    }
  }
  attr {
    key: "_output_shapes"
    value {
      list {
        shape {
          dim {
            size: 6272
          }
          dim {
            size: 1024
          }
        }
      }
    }
  }
}
node {
  name: "gradients/fully_connected1/Reshape_grad/Shape"
  op: "Shape"
  input: "max_pool_1/MaxPool"
  device: "/job:worker/task:0"
  attr {
    key: "T"
    value {
      type: DT_FLOAT
    }
  }
  attr {
    key: "_output_shapes"
    value {
      list {
        shape {
          dim {
            size: 4
          }
        }
      }
    }
  }
  attr {
    key: "out_type"
    value {
      type: DT_INT32
    }
  }
}
node {
  name: "gradients/fully_connected1/Reshape_grad/Reshape"
  op: "Reshape"
  input: "gradients/fully_connected1/MatMul_grad/tuple/control_dependency"
  input: "gradients/fully_connected1/Reshape_grad/Shape"
  device: "/job:worker/task:0"
  attr {
    key: "T"
    value {
      type: DT_FLOAT
    }
  }
  attr {
    key: "Tshape"
    value {
      type: DT_INT32
    }
  }
  attr {
    key: "_output_shapes"
    value {
      list {
        shape {
          dim {
            size: -1
          }
          dim {
            size: 7
          }
          dim {
            size: 7
          }
          dim {
            size: 128
          }
        }
      }
    }
  }
}
node {
  name: "gradients/max_pool_1/MaxPool_grad/MaxPoolGrad"
  op: "MaxPoolGrad"
  input: "convolution_1/Relu"
  input: "max_pool_1/MaxPool"
  input: "gradients/fully_connected1/Reshape_grad/Reshape"
  device: "/job:worker/task:0"
  attr {
    key: "T"
    value {
      type: DT_FLOAT
    }
  }
  attr {
    key: "_output_shapes"
    value {
      list {
        shape {
          dim {
            size: -1
          }
          dim {
            size: 14
          }
          dim {
            size: 14
          }
          dim {
            size: 128
          }
        }
      }
    }
  }
  attr {
    key: "data_format"
    value {
      s: "NHWC"
    }
  }
  attr {
    key: "ksize"
    value {
      list {
        i: 1
        i: 2
        i: 2
        i: 1
      }
    }
  }
  attr {
    key: "padding"
    value {
      s: "SAME"
    }
  }
  attr {
    key: "strides"
    value {
      list {
        i: 1
        i: 2
        i: 2
        i: 1
      }
    }
  }
}
node {
  name: "gradients/convolution_1/Relu_grad/ReluGrad"
  op: "ReluGrad"
  input: "gradients/max_pool_1/MaxPool_grad/MaxPoolGrad"
  input: "convolution_1/Relu"
  device: "/job:worker/task:0"
  attr {
    key: "T"
    value {
      type: DT_FLOAT
    }
  }
  attr {
    key: "_output_shapes"
    value {
      list {
        shape {
          dim {
            size: -1
          }
          dim {
            size: 14
          }
          dim {
            size: 14
          }
          dim {
            size: 128
          }
        }
      }
    }
  }
}
node {
  name: "gradients/convolution_1/BiasAdd_grad/BiasAddGrad"
  op: "BiasAddGrad"
  input: "gradients/convolution_1/Relu_grad/ReluGrad"
  device: "/job:worker/task:0"
  attr {
    key: "T"
    value {
      type: DT_FLOAT
    }
  }
  attr {
    key: "_output_shapes"
    value {
      list {
        shape {
          dim {
            size: 128
          }
        }
      }
    }
  }
  attr {
    key: "data_format"
    value {
      s: "NHWC"
    }
  }
}
node {
  name: "gradients/convolution_1/BiasAdd_grad/tuple/group_deps"
  op: "NoOp"
  input: "^gradients/convolution_1/BiasAdd_grad/BiasAddGrad"
  input: "^gradients/convolution_1/Relu_grad/ReluGrad"
  device: "/job:worker/task:0"
}
node {
  name: "gradients/convolution_1/BiasAdd_grad/tuple/control_dependency"
  op: "Identity"
  input: "gradients/convolution_1/Relu_grad/ReluGrad"
  input: "^gradients/convolution_1/BiasAdd_grad/tuple/group_deps"
  device: "/job:worker/task:0"
  attr {
    key: "T"
    value {
      type: DT_FLOAT
    }
  }
  attr {
    key: "_class"
    value {
      list {
        s: "loc:@gradients/convolution_1/Relu_grad/ReluGrad"
      }
    }
  }
  attr {
    key: "_output_shapes"
    value {
      list {
        shape {
          dim {
            size: -1
          }
          dim {
            size: 14
          }
          dim {
            size: 14
          }
          dim {
            size: 128
          }
        }
      }
    }
  }
}
node {
  name: "gradients/convolution_1/BiasAdd_grad/tuple/control_dependency_1"
  op: "Identity"
  input: "gradients/convolution_1/BiasAdd_grad/BiasAddGrad"
  input: "^gradients/convolution_1/BiasAdd_grad/tuple/group_deps"
  device: "/job:worker/task:0"
  attr {
    key: "T"
    value {
      type: DT_FLOAT
    }
  }
  attr {
    key: "_class"
    value {
      list {
        s: "loc:@gradients/convolution_1/BiasAdd_grad/BiasAddGrad"
      }
    }
  }
  attr {
    key: "_output_shapes"
    value {
      list {
        shape {
          dim {
            size: 128
          }
        }
      }
    }
  }
}
node {
  name: "gradients/convolution_1/Conv2D_grad/ShapeN"
  op: "ShapeN"
  input: "max_pool/MaxPool"
  input: "Variable_1/read"
  device: "/job:worker/task:0"
  attr {
    key: "N"
    value {
      i: 2
    }
  }
  attr {
    key: "T"
    value {
      type: DT_FLOAT
    }
  }
  attr {
    key: "_output_shapes"
    value {
      list {
        shape {
          dim {
            size: 4
          }
        }
        shape {
          dim {
            size: 4
          }
        }
      }
    }
  }
  attr {
    key: "out_type"
    value {
      type: DT_INT32
    }
  }
}
node {
  name: "gradients/convolution_1/Conv2D_grad/Const"
  op: "Const"
  device: "/job:worker/task:0"
  attr {
    key: "_output_shapes"
    value {
      list {
        shape {
          dim {
            size: 4
          }
        }
      }
    }
  }
  attr {
    key: "dtype"
    value {
      type: DT_INT32
    }
  }
  attr {
    key: "value"
    value {
      tensor {
        dtype: DT_INT32
        tensor_shape {
          dim {
            size: 4
          }
        }
        tensor_content: "\005\000\000\000\005\000\000\000@\000\000\000\200\000\000\000"
      }
    }
  }
}
node {
  name: "gradients/convolution_1/Conv2D_grad/Conv2DBackpropInput"
  op: "Conv2DBackpropInput"
  input: "gradients/convolution_1/Conv2D_grad/ShapeN"
  input: "Variable_1/read"
  input: "gradients/convolution_1/BiasAdd_grad/tuple/control_dependency"
  device: "/job:worker/task:0"
  attr {
    key: "T"
    value {
      type: DT_FLOAT
    }
  }
  attr {
    key: "_output_shapes"
    value {
      list {
        shape {
          dim {
            size: -1
          }
          dim {
            size: -1
          }
          dim {
            size: -1
          }
          dim {
            size: -1
          }
        }
      }
    }
  }
  attr {
    key: "data_format"
    value {
      s: "NHWC"
    }
  }
  attr {
    key: "dilations"
    value {
      list {
        i: 1
        i: 1
        i: 1
        i: 1
      }
    }
  }
  attr {
    key: "padding"
    value {
      s: "SAME"
    }
  }
  attr {
    key: "strides"
    value {
      list {
        i: 1
        i: 1
        i: 1
        i: 1
      }
    }
  }
  attr {
    key: "use_cudnn_on_gpu"
    value {
      b: true
    }
  }
}
node {
  name: "gradients/convolution_1/Conv2D_grad/Conv2DBackpropFilter"
  op: "Conv2DBackpropFilter"
  input: "max_pool/MaxPool"
  input: "gradients/convolution_1/Conv2D_grad/Const"
  input: "gradients/convolution_1/BiasAdd_grad/tuple/control_dependency"
  device: "/job:worker/task:0"
  attr {
    key: "T"
    value {
      type: DT_FLOAT
    }
  }
  attr {
    key: "_output_shapes"
    value {
      list {
        shape {
          dim {
            size: 5
          }
          dim {
            size: 5
          }
          dim {
            size: 64
          }
          dim {
            size: 128
          }
        }
      }
    }
  }
  attr {
    key: "data_format"
    value {
      s: "NHWC"
    }
  }
  attr {
    key: "dilations"
    value {
      list {
        i: 1
        i: 1
        i: 1
        i: 1
      }
    }
  }
  attr {
    key: "padding"
    value {
      s: "SAME"
    }
  }
  attr {
    key: "strides"
    value {
      list {
        i: 1
        i: 1
        i: 1
        i: 1
      }
    }
  }
  attr {
    key: "use_cudnn_on_gpu"
    value {
      b: true
    }
  }
}
node {
  name: "gradients/convolution_1/Conv2D_grad/tuple/group_deps"
  op: "NoOp"
  input: "^gradients/convolution_1/Conv2D_grad/Conv2DBackpropFilter"
  input: "^gradients/convolution_1/Conv2D_grad/Conv2DBackpropInput"
  device: "/job:worker/task:0"
}
node {
  name: "gradients/convolution_1/Conv2D_grad/tuple/control_dependency"
  op: "Identity"
  input: "gradients/convolution_1/Conv2D_grad/Conv2DBackpropInput"
  input: "^gradients/convolution_1/Conv2D_grad/tuple/group_deps"
  device: "/job:worker/task:0"
  attr {
    key: "T"
    value {
      type: DT_FLOAT
    }
  }
  attr {
    key: "_class"
    value {
      list {
        s: "loc:@gradients/convolution_1/Conv2D_grad/Conv2DBackpropInput"
      }
    }
  }
  attr {
    key: "_output_shapes"
    value {
      list {
        shape {
          dim {
            size: -1
          }
          dim {
            size: 14
          }
          dim {
            size: 14
          }
          dim {
            size: 64
          }
        }
      }
    }
  }
}
node {
  name: "gradients/convolution_1/Conv2D_grad/tuple/control_dependency_1"
  op: "Identity"
  input: "gradients/convolution_1/Conv2D_grad/Conv2DBackpropFilter"
  input: "^gradients/convolution_1/Conv2D_grad/tuple/group_deps"
  device: "/job:worker/task:0"
  attr {
    key: "T"
    value {
      type: DT_FLOAT
    }
  }
  attr {
    key: "_class"
    value {
      list {
        s: "loc:@gradients/convolution_1/Conv2D_grad/Conv2DBackpropFilter"
      }
    }
  }
  attr {
    key: "_output_shapes"
    value {
      list {
        shape {
          dim {
            size: 5
          }
          dim {
            size: 5
          }
          dim {
            size: 64
          }
          dim {
            size: 128
          }
        }
      }
    }
  }
}
node {
  name: "gradients/max_pool/MaxPool_grad/MaxPoolGrad"
  op: "MaxPoolGrad"
  input: "convolution/Relu"
  input: "max_pool/MaxPool"
  input: "gradients/convolution_1/Conv2D_grad/tuple/control_dependency"
  device: "/job:worker/task:0"
  attr {
    key: "T"
    value {
      type: DT_FLOAT
    }
  }
  attr {
    key: "_output_shapes"
    value {
      list {
        shape {
          dim {
            size: -1
          }
          dim {
            size: 28
          }
          dim {
            size: 28
          }
          dim {
            size: 64
          }
        }
      }
    }
  }
  attr {
    key: "data_format"
    value {
      s: "NHWC"
    }
  }
  attr {
    key: "ksize"
    value {
      list {
        i: 1
        i: 2
        i: 2
        i: 1
      }
    }
  }
  attr {
    key: "padding"
    value {
      s: "SAME"
    }
  }
  attr {
    key: "strides"
    value {
      list {
        i: 1
        i: 2
        i: 2
        i: 1
      }
    }
  }
}
node {
  name: "gradients/convolution/Relu_grad/ReluGrad"
  op: "ReluGrad"
  input: "gradients/max_pool/MaxPool_grad/MaxPoolGrad"
  input: "convolution/Relu"
  device: "/job:worker/task:0"
  attr {
    key: "T"
    value {
      type: DT_FLOAT
    }
  }
  attr {
    key: "_output_shapes"
    value {
      list {
        shape {
          dim {
            size: -1
          }
          dim {
            size: 28
          }
          dim {
            size: 28
          }
          dim {
            size: 64
          }
        }
      }
    }
  }
}
node {
  name: "gradients/convolution/BiasAdd_grad/BiasAddGrad"
  op: "BiasAddGrad"
  input: "gradients/convolution/Relu_grad/ReluGrad"
  device: "/job:worker/task:0"
  attr {
    key: "T"
    value {
      type: DT_FLOAT
    }
  }
  attr {
    key: "_output_shapes"
    value {
      list {
        shape {
          dim {
            size: 64
          }
        }
      }
    }
  }
  attr {
    key: "data_format"
    value {
      s: "NHWC"
    }
  }
}
node {
  name: "gradients/convolution/BiasAdd_grad/tuple/group_deps"
  op: "NoOp"
  input: "^gradients/convolution/BiasAdd_grad/BiasAddGrad"
  input: "^gradients/convolution/Relu_grad/ReluGrad"
  device: "/job:worker/task:0"
}
node {
  name: "gradients/convolution/BiasAdd_grad/tuple/control_dependency"
  op: "Identity"
  input: "gradients/convolution/Relu_grad/ReluGrad"
  input: "^gradients/convolution/BiasAdd_grad/tuple/group_deps"
  device: "/job:worker/task:0"
  attr {
    key: "T"
    value {
      type: DT_FLOAT
    }
  }
  attr {
    key: "_class"
    value {
      list {
        s: "loc:@gradients/convolution/Relu_grad/ReluGrad"
      }
    }
  }
  attr {
    key: "_output_shapes"
    value {
      list {
        shape {
          dim {
            size: -1
          }
          dim {
            size: 28
          }
          dim {
            size: 28
          }
          dim {
            size: 64
          }
        }
      }
    }
  }
}
node {
  name: "gradients/convolution/BiasAdd_grad/tuple/control_dependency_1"
  op: "Identity"
  input: "gradients/convolution/BiasAdd_grad/BiasAddGrad"
  input: "^gradients/convolution/BiasAdd_grad/tuple/group_deps"
  device: "/job:worker/task:0"
  attr {
    key: "T"
    value {
      type: DT_FLOAT
    }
  }
  attr {
    key: "_class"
    value {
      list {
        s: "loc:@gradients/convolution/BiasAdd_grad/BiasAddGrad"
      }
    }
  }
  attr {
    key: "_output_shapes"
    value {
      list {
        shape {
          dim {
            size: 64
          }
        }
      }
    }
  }
}
node {
  name: "gradients/convolution/Conv2D_grad/ShapeN"
  op: "ShapeN"
  input: "Reshape"
  input: "Variable/read"
  device: "/job:worker/task:0"
  attr {
    key: "N"
    value {
      i: 2
    }
  }
  attr {
    key: "T"
    value {
      type: DT_FLOAT
    }
  }
  attr {
    key: "_output_shapes"
    value {
      list {
        shape {
          dim {
            size: 4
          }
        }
        shape {
          dim {
            size: 4
          }
        }
      }
    }
  }
  attr {
    key: "out_type"
    value {
      type: DT_INT32
    }
  }
}
node {
  name: "gradients/convolution/Conv2D_grad/Const"
  op: "Const"
  device: "/job:worker/task:0"
  attr {
    key: "_output_shapes"
    value {
      list {
        shape {
          dim {
            size: 4
          }
        }
      }
    }
  }
  attr {
    key: "dtype"
    value {
      type: DT_INT32
    }
  }
  attr {
    key: "value"
    value {
      tensor {
        dtype: DT_INT32
        tensor_shape {
          dim {
            size: 4
          }
        }
        tensor_content: "\005\000\000\000\005\000\000\000\001\000\000\000@\000\000\000"
      }
    }
  }
}
node {
  name: "gradients/convolution/Conv2D_grad/Conv2DBackpropInput"
  op: "Conv2DBackpropInput"
  input: "gradients/convolution/Conv2D_grad/ShapeN"
  input: "Variable/read"
  input: "gradients/convolution/BiasAdd_grad/tuple/control_dependency"
  device: "/job:worker/task:0"
  attr {
    key: "T"
    value {
      type: DT_FLOAT
    }
  }
  attr {
    key: "_output_shapes"
    value {
      list {
        shape {
          dim {
            size: -1
          }
          dim {
            size: -1
          }
          dim {
            size: -1
          }
          dim {
            size: -1
          }
        }
      }
    }
  }
  attr {
    key: "data_format"
    value {
      s: "NHWC"
    }
  }
  attr {
    key: "dilations"
    value {
      list {
        i: 1
        i: 1
        i: 1
        i: 1
      }
    }
  }
  attr {
    key: "padding"
    value {
      s: "SAME"
    }
  }
  attr {
    key: "strides"
    value {
      list {
        i: 1
        i: 1
        i: 1
        i: 1
      }
    }
  }
  attr {
    key: "use_cudnn_on_gpu"
    value {
      b: true
    }
  }
}
node {
  name: "gradients/convolution/Conv2D_grad/Conv2DBackpropFilter"
  op: "Conv2DBackpropFilter"
  input: "Reshape"
  input: "gradients/convolution/Conv2D_grad/Const"
  input: "gradients/convolution/BiasAdd_grad/tuple/control_dependency"
  device: "/job:worker/task:0"
  attr {
    key: "T"
    value {
      type: DT_FLOAT
    }
  }
  attr {
    key: "_output_shapes"
    value {
      list {
        shape {
          dim {
            size: 5
          }
          dim {
            size: 5
          }
          dim {
            size: 1
          }
          dim {
            size: 64
          }
        }
      }
    }
  }
  attr {
    key: "data_format"
    value {
      s: "NHWC"
    }
  }
  attr {
    key: "dilations"
    value {
      list {
        i: 1
        i: 1
        i: 1
        i: 1
      }
    }
  }
  attr {
    key: "padding"
    value {
      s: "SAME"
    }
  }
  attr {
    key: "strides"
    value {
      list {
        i: 1
        i: 1
        i: 1
        i: 1
      }
    }
  }
  attr {
    key: "use_cudnn_on_gpu"
    value {
      b: true
    }
  }
}
node {
  name: "gradients/convolution/Conv2D_grad/tuple/group_deps"
  op: "NoOp"
  input: "^gradients/convolution/Conv2D_grad/Conv2DBackpropFilter"
  input: "^gradients/convolution/Conv2D_grad/Conv2DBackpropInput"
  device: "/job:worker/task:0"
}
node {
  name: "gradients/convolution/Conv2D_grad/tuple/control_dependency"
  op: "Identity"
  input: "gradients/convolution/Conv2D_grad/Conv2DBackpropInput"
  input: "^gradients/convolution/Conv2D_grad/tuple/group_deps"
  device: "/job:worker/task:0"
  attr {
    key: "T"
    value {
      type: DT_FLOAT
    }
  }
  attr {
    key: "_class"
    value {
      list {
        s: "loc:@gradients/convolution/Conv2D_grad/Conv2DBackpropInput"
      }
    }
  }
  attr {
    key: "_output_shapes"
    value {
      list {
        shape {
          dim {
            size: -1
          }
          dim {
            size: 28
          }
          dim {
            size: 28
          }
          dim {
            size: 1
          }
        }
      }
    }
  }
}
node {
  name: "gradients/convolution/Conv2D_grad/tuple/control_dependency_1"
  op: "Identity"
  input: "gradients/convolution/Conv2D_grad/Conv2DBackpropFilter"
  input: "^gradients/convolution/Conv2D_grad/tuple/group_deps"
  device: "/job:worker/task:0"
  attr {
    key: "T"
    value {
      type: DT_FLOAT
    }
  }
  attr {
    key: "_class"
    value {
      list {
        s: "loc:@gradients/convolution/Conv2D_grad/Conv2DBackpropFilter"
      }
    }
  }
  attr {
    key: "_output_shapes"
    value {
      list {
        shape {
          dim {
            size: 5
          }
          dim {
            size: 5
          }
          dim {
            size: 1
          }
          dim {
            size: 64
          }
        }
      }
    }
  }
}
node {
  name: "beta1_power/initial_value"
  op: "Const"
  device: "/job:ps/task:0"
  attr {
    key: "_class"
    value {
      list {
        s: "loc:@Variable"
      }
    }
  }
  attr {
    key: "_output_shapes"
    value {
      list {
        shape {
        }
      }
    }
  }
  attr {
    key: "dtype"
    value {
      type: DT_FLOAT
    }
  }
  attr {
    key: "value"
    value {
      tensor {
        dtype: DT_FLOAT
        tensor_shape {
        }
        float_val: 0.8999999761581421
      }
    }
  }
}
node {
  name: "beta1_power"
  op: "VariableV2"
  device: "/job:ps/task:0"
  attr {
    key: "_class"
    value {
      list {
        s: "loc:@Variable"
      }
    }
  }
  attr {
    key: "_output_shapes"
    value {
      list {
        shape {
        }
      }
    }
  }
  attr {
    key: "container"
    value {
      s: ""
    }
  }
  attr {
    key: "dtype"
    value {
      type: DT_FLOAT
    }
  }
  attr {
    key: "shape"
    value {
      shape {
      }
    }
  }
  attr {
    key: "shared_name"
    value {
      s: ""
    }
  }
}
node {
  name: "beta1_power/Assign"
  op: "Assign"
  input: "beta1_power"
  input: "beta1_power/initial_value"
  device: "/job:ps/task:0"
  attr {
    key: "T"
    value {
      type: DT_FLOAT
    }
  }
  attr {
    key: "_class"
    value {
      list {
        s: "loc:@Variable"
      }
    }
  }
  attr {
    key: "_output_shapes"
    value {
      list {
        shape {
        }
      }
    }
  }
  attr {
    key: "use_locking"
    value {
      b: true
    }
  }
  attr {
    key: "validate_shape"
    value {
      b: true
    }
  }
}
node {
  name: "beta1_power/read"
  op: "Identity"
  input: "beta1_power"
  device: "/job:ps/task:0"
  attr {
    key: "T"
    value {
      type: DT_FLOAT
    }
  }
  attr {
    key: "_class"
    value {
      list {
        s: "loc:@Variable"
      }
    }
  }
  attr {
    key: "_output_shapes"
    value {
      list {
        shape {
        }
      }
    }
  }
}
node {
  name: "beta2_power/initial_value"
  op: "Const"
  device: "/job:ps/task:0"
  attr {
    key: "_class"
    value {
      list {
        s: "loc:@Variable"
      }
    }
  }
  attr {
    key: "_output_shapes"
    value {
      list {
        shape {
        }
      }
    }
  }
  attr {
    key: "dtype"
    value {
      type: DT_FLOAT
    }
  }
  attr {
    key: "value"
    value {
      tensor {
        dtype: DT_FLOAT
        tensor_shape {
        }
        float_val: 0.9990000128746033
      }
    }
  }
}
node {
  name: "beta2_power"
  op: "VariableV2"
  device: "/job:ps/task:0"
  attr {
    key: "_class"
    value {
      list {
        s: "loc:@Variable"
      }
    }
  }
  attr {
    key: "_output_shapes"
    value {
      list {
        shape {
        }
      }
    }
  }
  attr {
    key: "container"
    value {
      s: ""
    }
  }
  attr {
    key: "dtype"
    value {
      type: DT_FLOAT
    }
  }
  attr {
    key: "shape"
    value {
      shape {
      }
    }
  }
  attr {
    key: "shared_name"
    value {
      s: ""
    }
  }
}
node {
  name: "beta2_power/Assign"
  op: "Assign"
  input: "beta2_power"
  input: "beta2_power/initial_value"
  device: "/job:ps/task:0"
  attr {
    key: "T"
    value {
      type: DT_FLOAT
    }
  }
  attr {
    key: "_class"
    value {
      list {
        s: "loc:@Variable"
      }
    }
  }
  attr {
    key: "_output_shapes"
    value {
      list {
        shape {
        }
      }
    }
  }
  attr {
    key: "use_locking"
    value {
      b: true
    }
  }
  attr {
    key: "validate_shape"
    value {
      b: true
    }
  }
}
node {
  name: "beta2_power/read"
  op: "Identity"
  input: "beta2_power"
  device: "/job:ps/task:0"
  attr {
    key: "T"
    value {
      type: DT_FLOAT
    }
  }
  attr {
    key: "_class"
    value {
      list {
        s: "loc:@Variable"
      }
    }
  }
  attr {
    key: "_output_shapes"
    value {
      list {
        shape {
        }
      }
    }
  }
}
node {
  name: "Variable/Adam/Initializer/zeros/shape_as_tensor"
  op: "Const"
  device: "/job:ps/task:0"
  attr {
    key: "_class"
    value {
      list {
        s: "loc:@Variable"
      }
    }
  }
  attr {
    key: "_output_shapes"
    value {
      list {
        shape {
          dim {
            size: 4
          }
        }
      }
    }
  }
  attr {
    key: "dtype"
    value {
      type: DT_INT32
    }
  }
  attr {
    key: "value"
    value {
      tensor {
        dtype: DT_INT32
        tensor_shape {
          dim {
            size: 4
          }
        }
        tensor_content: "\005\000\000\000\005\000\000\000\001\000\000\000@\000\000\000"
      }
    }
  }
}
node {
  name: "Variable/Adam/Initializer/zeros/Const"
  op: "Const"
  device: "/job:ps/task:0"
  attr {
    key: "_class"
    value {
      list {
        s: "loc:@Variable"
      }
    }
  }
  attr {
    key: "_output_shapes"
    value {
      list {
        shape {
        }
      }
    }
  }
  attr {
    key: "dtype"
    value {
      type: DT_FLOAT
    }
  }
  attr {
    key: "value"
    value {
      tensor {
        dtype: DT_FLOAT
        tensor_shape {
        }
        float_val: 0.0
      }
    }
  }
}
node {
  name: "Variable/Adam/Initializer/zeros"
  op: "Fill"
  input: "Variable/Adam/Initializer/zeros/shape_as_tensor"
  input: "Variable/Adam/Initializer/zeros/Const"
  device: "/job:ps/task:0"
  attr {
    key: "T"
    value {
      type: DT_FLOAT
    }
  }
  attr {
    key: "_class"
    value {
      list {
        s: "loc:@Variable"
      }
    }
  }
  attr {
    key: "_output_shapes"
    value {
      list {
        shape {
          dim {
            size: 5
          }
          dim {
            size: 5
          }
          dim {
            size: 1
          }
          dim {
            size: 64
          }
        }
      }
    }
  }
  attr {
    key: "index_type"
    value {
      type: DT_INT32
    }
  }
}
node {
  name: "Variable/Adam"
  op: "VariableV2"
  device: "/job:ps/task:0"
  attr {
    key: "_class"
    value {
      list {
        s: "loc:@Variable"
      }
    }
  }
  attr {
    key: "_output_shapes"
    value {
      list {
        shape {
          dim {
            size: 5
          }
          dim {
            size: 5
          }
          dim {
            size: 1
          }
          dim {
            size: 64
          }
        }
      }
    }
  }
  attr {
    key: "container"
    value {
      s: ""
    }
  }
  attr {
    key: "dtype"
    value {
      type: DT_FLOAT
    }
  }
  attr {
    key: "shape"
    value {
      shape {
        dim {
          size: 5
        }
        dim {
          size: 5
        }
        dim {
          size: 1
        }
        dim {
          size: 64
        }
      }
    }
  }
  attr {
    key: "shared_name"
    value {
      s: ""
    }
  }
}
node {
  name: "Variable/Adam/Assign"
  op: "Assign"
  input: "Variable/Adam"
  input: "Variable/Adam/Initializer/zeros"
  device: "/job:ps/task:0"
  attr {
    key: "T"
    value {
      type: DT_FLOAT
    }
  }
  attr {
    key: "_class"
    value {
      list {
        s: "loc:@Variable"
      }
    }
  }
  attr {
    key: "_output_shapes"
    value {
      list {
        shape {
          dim {
            size: 5
          }
          dim {
            size: 5
          }
          dim {
            size: 1
          }
          dim {
            size: 64
          }
        }
      }
    }
  }
  attr {
    key: "use_locking"
    value {
      b: true
    }
  }
  attr {
    key: "validate_shape"
    value {
      b: true
    }
  }
}
node {
  name: "Variable/Adam/read"
  op: "Identity"
  input: "Variable/Adam"
  device: "/job:ps/task:0"
  attr {
    key: "T"
    value {
      type: DT_FLOAT
    }
  }
  attr {
    key: "_class"
    value {
      list {
        s: "loc:@Variable"
      }
    }
  }
  attr {
    key: "_output_shapes"
    value {
      list {
        shape {
          dim {
            size: 5
          }
          dim {
            size: 5
          }
          dim {
            size: 1
          }
          dim {
            size: 64
          }
        }
      }
    }
  }
}
node {
  name: "Variable/Adam_1/Initializer/zeros/shape_as_tensor"
  op: "Const"
  device: "/job:ps/task:0"
  attr {
    key: "_class"
    value {
      list {
        s: "loc:@Variable"
      }
    }
  }
  attr {
    key: "_output_shapes"
    value {
      list {
        shape {
          dim {
            size: 4
          }
        }
      }
    }
  }
  attr {
    key: "dtype"
    value {
      type: DT_INT32
    }
  }
  attr {
    key: "value"
    value {
      tensor {
        dtype: DT_INT32
        tensor_shape {
          dim {
            size: 4
          }
        }
        tensor_content: "\005\000\000\000\005\000\000\000\001\000\000\000@\000\000\000"
      }
    }
  }
}
node {
  name: "Variable/Adam_1/Initializer/zeros/Const"
  op: "Const"
  device: "/job:ps/task:0"
  attr {
    key: "_class"
    value {
      list {
        s: "loc:@Variable"
      }
    }
  }
  attr {
    key: "_output_shapes"
    value {
      list {
        shape {
        }
      }
    }
  }
  attr {
    key: "dtype"
    value {
      type: DT_FLOAT
    }
  }
  attr {
    key: "value"
    value {
      tensor {
        dtype: DT_FLOAT
        tensor_shape {
        }
        float_val: 0.0
      }
    }
  }
}
node {
  name: "Variable/Adam_1/Initializer/zeros"
  op: "Fill"
  input: "Variable/Adam_1/Initializer/zeros/shape_as_tensor"
  input: "Variable/Adam_1/Initializer/zeros/Const"
  device: "/job:ps/task:0"
  attr {
    key: "T"
    value {
      type: DT_FLOAT
    }
  }
  attr {
    key: "_class"
    value {
      list {
        s: "loc:@Variable"
      }
    }
  }
  attr {
    key: "_output_shapes"
    value {
      list {
        shape {
          dim {
            size: 5
          }
          dim {
            size: 5
          }
          dim {
            size: 1
          }
          dim {
            size: 64
          }
        }
      }
    }
  }
  attr {
    key: "index_type"
    value {
      type: DT_INT32
    }
  }
}
node {
  name: "Variable/Adam_1"
  op: "VariableV2"
  device: "/job:ps/task:0"
  attr {
    key: "_class"
    value {
      list {
        s: "loc:@Variable"
      }
    }
  }
  attr {
    key: "_output_shapes"
    value {
      list {
        shape {
          dim {
            size: 5
          }
          dim {
            size: 5
          }
          dim {
            size: 1
          }
          dim {
            size: 64
          }
        }
      }
    }
  }
  attr {
    key: "container"
    value {
      s: ""
    }
  }
  attr {
    key: "dtype"
    value {
      type: DT_FLOAT
    }
  }
  attr {
    key: "shape"
    value {
      shape {
        dim {
          size: 5
        }
        dim {
          size: 5
        }
        dim {
          size: 1
        }
        dim {
          size: 64
        }
      }
    }
  }
  attr {
    key: "shared_name"
    value {
      s: ""
    }
  }
}
node {
  name: "Variable/Adam_1/Assign"
  op: "Assign"
  input: "Variable/Adam_1"
  input: "Variable/Adam_1/Initializer/zeros"
  device: "/job:ps/task:0"
  attr {
    key: "T"
    value {
      type: DT_FLOAT
    }
  }
  attr {
    key: "_class"
    value {
      list {
        s: "loc:@Variable"
      }
    }
  }
  attr {
    key: "_output_shapes"
    value {
      list {
        shape {
          dim {
            size: 5
          }
          dim {
            size: 5
          }
          dim {
            size: 1
          }
          dim {
            size: 64
          }
        }
      }
    }
  }
  attr {
    key: "use_locking"
    value {
      b: true
    }
  }
  attr {
    key: "validate_shape"
    value {
      b: true
    }
  }
}
node {
  name: "Variable/Adam_1/read"
  op: "Identity"
  input: "Variable/Adam_1"
  device: "/job:ps/task:0"
  attr {
    key: "T"
    value {
      type: DT_FLOAT
    }
  }
  attr {
    key: "_class"
    value {
      list {
        s: "loc:@Variable"
      }
    }
  }
  attr {
    key: "_output_shapes"
    value {
      list {
        shape {
          dim {
            size: 5
          }
          dim {
            size: 5
          }
          dim {
            size: 1
          }
          dim {
            size: 64
          }
        }
      }
    }
  }
}
node {
  name: "Variable_1/Adam/Initializer/zeros/shape_as_tensor"
  op: "Const"
  device: "/job:ps/task:0"
  attr {
    key: "_class"
    value {
      list {
        s: "loc:@Variable_1"
      }
    }
  }
  attr {
    key: "_output_shapes"
    value {
      list {
        shape {
          dim {
            size: 4
          }
        }
      }
    }
  }
  attr {
    key: "dtype"
    value {
      type: DT_INT32
    }
  }
  attr {
    key: "value"
    value {
      tensor {
        dtype: DT_INT32
        tensor_shape {
          dim {
            size: 4
          }
        }
        tensor_content: "\005\000\000\000\005\000\000\000@\000\000\000\200\000\000\000"
      }
    }
  }
}
node {
  name: "Variable_1/Adam/Initializer/zeros/Const"
  op: "Const"
  device: "/job:ps/task:0"
  attr {
    key: "_class"
    value {
      list {
        s: "loc:@Variable_1"
      }
    }
  }
  attr {
    key: "_output_shapes"
    value {
      list {
        shape {
        }
      }
    }
  }
  attr {
    key: "dtype"
    value {
      type: DT_FLOAT
    }
  }
  attr {
    key: "value"
    value {
      tensor {
        dtype: DT_FLOAT
        tensor_shape {
        }
…
  input: "report_uninitialized_variables_1/IsVariableInitialized_15"
  input: "report_uninitialized_variables_1/IsVariableInitialized_16"
  input: "report_uninitialized_variables_1/IsVariableInitialized_17"
  input: "report_uninitialized_variables_1/IsVariableInitialized_18"
  input: "report_uninitialized_variables_1/IsVariableInitialized_19"
  input: "report_uninitialized_variables_1/IsVariableInitialized_20"
  input: "report_uninitialized_variables_1/IsVariableInitialized_21"
  input: "report_uninitialized_variables_1/IsVariableInitialized_22"
  input: "report_uninitialized_variables_1/IsVariableInitialized_23"
  input: "report_uninitialized_variables_1/IsVariableInitialized_24"
  input: "report_uninitialized_variables_1/IsVariableInitialized_25"
  input: "report_uninitialized_variables_1/IsVariableInitialized_26"
  device: "/device:CPU:0"
  attr {
    key: "N"
    value {
      i: 27
    }
  }
  attr {
    key: "T"
    value {
      type: DT_BOOL
    }
  }
  attr {
    key: "_output_shapes"
    value {
      list {
        shape {
          dim {
            size: 27
          }
        }
      }
    }
  }
  attr {
    key: "axis"
    value {
      i: 0
    }
  }
}
node {
  name: "report_uninitialized_variables_1/LogicalNot"
  op: "LogicalNot"
  input: "report_uninitialized_variables_1/stack"
  device: "/device:CPU:0"
  attr {
    key: "_output_shapes"
    value {
      list {
        shape {
          dim {
            size: 27
          }
        }
      }
    }
  }
}
node {
  name: "report_uninitialized_variables_1/Const"
  op: "Const"
  device: "/device:CPU:0"
  attr {
    key: "_output_shapes"
    value {
      list {
        shape {
          dim {
            size: 27
          }
        }
      }
    }
  }
  attr {
    key: "dtype"
    value {
      type: DT_STRING
    }
  }
  attr {
    key: "value"
    value {
      tensor {
        dtype: DT_STRING
        tensor_shape {
          dim {
            size: 27
          }
        }
        string_val: "Variable"
        string_val: "Variable_1"
        string_val: "Variable_2"
        string_val: "Variable_3"
        string_val: "Variable_4"
        string_val: "Variable_5"
        string_val: "Variable_6"
        string_val: "Variable_7"
        string_val: "global_step"
        string_val: "beta1_power"
        string_val: "beta2_power"
        string_val: "Variable/Adam"
        string_val: "Variable/Adam_1"
        string_val: "Variable_1/Adam"
        string_val: "Variable_1/Adam_1"
        string_val: "Variable_2/Adam"
        string_val: "Variable_2/Adam_1"
        string_val: "Variable_3/Adam"
        string_val: "Variable_3/Adam_1"
        string_val: "Variable_4/Adam"
        string_val: "Variable_4/Adam_1"
        string_val: "Variable_5/Adam"
        string_val: "Variable_5/Adam_1"
        string_val: "Variable_6/Adam"
        string_val: "Variable_6/Adam_1"
        string_val: "Variable_7/Adam"
        string_val: "Variable_7/Adam_1"
      }
    }
  }
}
node {
  name: "report_uninitialized_variables_1/boolean_mask/Shape"
  op: "Const"
  device: "/device:CPU:0"
  attr {
    key: "_output_shapes"
    value {
      list {
        shape {
          dim {
            size: 1
          }
        }
      }
    }
  }
  attr {
    key: "dtype"
    value {
      type: DT_INT32
    }
  }
  attr {
    key: "value"
    value {
      tensor {
        dtype: DT_INT32
        tensor_shape {
          dim {
            size: 1
          }
        }
        int_val: 27
      }
    }
  }
}
node {
  name: "report_uninitialized_variables_1/boolean_mask/strided_slice/stack"
  op: "Const"
  device: "/device:CPU:0"
  attr {
    key: "_output_shapes"
    value {
      list {
        shape {
          dim {
            size: 1
          }
        }
      }
    }
  }
  attr {
    key: "dtype"
    value {
      type: DT_INT32
    }
  }
  attr {
    key: "value"
    value {
      tensor {
        dtype: DT_INT32
        tensor_shape {
          dim {
            size: 1
          }
        }
        int_val: 0
      }
    }
  }
}
node {
  name: "report_uninitialized_variables_1/boolean_mask/strided_slice/stack_1"
  op: "Const"
  device: "/device:CPU:0"
  attr {
    key: "_output_shapes"
    value {
      list {
        shape {
          dim {
            size: 1
          }
        }
      }
    }
  }
  attr {
    key: "dtype"
    value {
      type: DT_INT32
    }
  }
  attr {
    key: "value"
    value {
      tensor {
        dtype: DT_INT32
        tensor_shape {
          dim {
            size: 1
          }
        }
        int_val: 1
      }
    }
  }
}
node {
  name: "report_uninitialized_variables_1/boolean_mask/strided_slice/stack_2"
  op: "Const"
  device: "/device:CPU:0"
  attr {
    key: "_output_shapes"
    value {
      list {
        shape {
          dim {
            size: 1
          }
        }
      }
    }
  }
  attr {
    key: "dtype"
    value {
      type: DT_INT32
    }
  }
  attr {
    key: "value"
    value {
      tensor {
        dtype: DT_INT32
        tensor_shape {
          dim {
            size: 1
          }
        }
        int_val: 1
      }
    }
  }
}
node {
  name: "report_uninitialized_variables_1/boolean_mask/strided_slice"
  op: "StridedSlice"
  input: "report_uninitialized_variables_1/boolean_mask/Shape"
  input: "report_uninitialized_variables_1/boolean_mask/strided_slice/stack"
  input: "report_uninitialized_variables_1/boolean_mask/strided_slice/stack_1"
  input: "report_uninitialized_variables_1/boolean_mask/strided_slice/stack_2"
  device: "/device:CPU:0"
  attr {
    key: "Index"
    value {
      type: DT_INT32
    }
  }
  attr {
    key: "T"
    value {
      type: DT_INT32
    }
  }
  attr {
    key: "_output_shapes"
    value {
      list {
        shape {
          dim {
            size: 1
          }
        }
      }
    }
  }
  attr {
    key: "begin_mask"
    value {
      i: 0
    }
  }
  attr {
    key: "ellipsis_mask"
    value {
      i: 0
    }
  }
  attr {
    key: "end_mask"
    value {
      i: 0
    }
  }
  attr {
    key: "new_axis_mask"
    value {
      i: 0
    }
  }
  attr {
    key: "shrink_axis_mask"
    value {
      i: 0
    }
  }
}
node {
  name: "report_uninitialized_variables_1/boolean_mask/Prod/reduction_indices"
  op: "Const"
  device: "/device:CPU:0"
  attr {
    key: "_output_shapes"
    value {
      list {
        shape {
          dim {
            size: 1
          }
        }
      }
    }
  }
  attr {
    key: "dtype"
    value {
      type: DT_INT32
    }
  }
  attr {
    key: "value"
    value {
      tensor {
        dtype: DT_INT32
        tensor_shape {
          dim {
            size: 1
          }
        }
        int_val: 0
      }
    }
  }
}
node {
  name: "report_uninitialized_variables_1/boolean_mask/Prod"
  op: "Prod"
  input: "report_uninitialized_variables_1/boolean_mask/strided_slice"
  input: "report_uninitialized_variables_1/boolean_mask/Prod/reduction_indices"
  device: "/device:CPU:0"
  attr {
    key: "T"
    value {
      type: DT_INT32
    }
  }
  attr {
    key: "Tidx"
    value {
      type: DT_INT32
    }
  }
  attr {
    key: "_output_shapes"
    value {
      list {
        shape {
        }
      }
    }
  }
  attr {
    key: "keep_dims"
    value {
      b: false
    }
  }
}
node {
  name: "report_uninitialized_variables_1/boolean_mask/Shape_1"
  op: "Const"
  device: "/device:CPU:0"
  attr {
    key: "_output_shapes"
    value {
      list {
        shape {
          dim {
            size: 1
          }
        }
      }
    }
  }
  attr {
    key: "dtype"
    value {
      type: DT_INT32
    }
  }
  attr {
    key: "value"
    value {
      tensor {
        dtype: DT_INT32
        tensor_shape {
          dim {
            size: 1
          }
        }
        int_val: 27
      }
    }
  }
}
node {
  name: "report_uninitialized_variables_1/boolean_mask/strided_slice_1/stack"
  op: "Const"
  device: "/device:CPU:0"
  attr {
    key: "_output_shapes"
    value {
      list {
        shape {
          dim {
            size: 1
          }
        }
      }
    }
  }
  attr {
    key: "dtype"
    value {
      type: DT_INT32
    }
  }
  attr {
    key: "value"
    value {
      tensor {
        dtype: DT_INT32
        tensor_shape {
          dim {
            size: 1
          }
        }
        int_val: 0
      }
    }
  }
}
node {
  name: "report_uninitialized_variables_1/boolean_mask/strided_slice_1/stack_1"
  op: "Const"
  device: "/device:CPU:0"
  attr {
    key: "_output_shapes"
    value {
      list {
        shape {
          dim {
            size: 1
          }
        }
      }
    }
  }
  attr {
    key: "dtype"
    value {
      type: DT_INT32
    }
  }
  attr {
    key: "value"
    value {
      tensor {
        dtype: DT_INT32
        tensor_shape {
          dim {
            size: 1
          }
        }
        int_val: 0
      }
    }
  }
}
node {
  name: "report_uninitialized_variables_1/boolean_mask/strided_slice_1/stack_2"
  op: "Const"
  device: "/device:CPU:0"
  attr {
    key: "_output_shapes"
    value {
      list {
        shape {
          dim {
            size: 1
          }
        }
      }
    }
  }
  attr {
    key: "dtype"
    value {
      type: DT_INT32
    }
  }
  attr {
    key: "value"
    value {
      tensor {
        dtype: DT_INT32
        tensor_shape {
          dim {
            size: 1
          }
        }
        int_val: 1
      }
    }
  }
}
node {
  name: "report_uninitialized_variables_1/boolean_mask/strided_slice_1"
  op: "StridedSlice"
  input: "report_uninitialized_variables_1/boolean_mask/Shape_1"
  input: "report_uninitialized_variables_1/boolean_mask/strided_slice_1/stack"
  input: "report_uninitialized_variables_1/boolean_mask/strided_slice_1/stack_1"
  input: "report_uninitialized_variables_1/boolean_mask/strided_slice_1/stack_2"
  device: "/device:CPU:0"
  attr {
    key: "Index"
    value {
      type: DT_INT32
    }
  }
  attr {
    key: "T"
    value {
      type: DT_INT32
    }
  }
  attr {
    key: "_output_shapes"
    value {
      list {
        shape {
          dim {
          }
        }
      }
    }
  }
  attr {
    key: "begin_mask"
    value {
      i: 1
    }
  }
  attr {
    key: "ellipsis_mask"
    value {
      i: 0
    }
  }
  attr {
    key: "end_mask"
    value {
      i: 0
    }
  }
  attr {
    key: "new_axis_mask"
    value {
      i: 0
    }
  }
  attr {
    key: "shrink_axis_mask"
    value {
      i: 0
    }
  }
}
node {
  name: "report_uninitialized_variables_1/boolean_mask/Shape_2"
  op: "Const"
  device: "/device:CPU:0"
  attr {
    key: "_output_shapes"
    value {
      list {
        shape {
          dim {
            size: 1
          }
        }
      }
    }
  }
  attr {
    key: "dtype"
    value {
      type: DT_INT32
    }
  }
  attr {
    key: "value"
    value {
      tensor {
        dtype: DT_INT32
        tensor_shape {
          dim {
            size: 1
          }
        }
        int_val: 27
      }
    }
  }
}
node {
  name: "report_uninitialized_variables_1/boolean_mask/strided_slice_2/stack"
  op: "Const"
  device: "/device:CPU:0"
  attr {
    key: "_output_shapes"
    value {
      list {
        shape {
          dim {
            size: 1
          }
        }
      }
    }
  }
  attr {
    key: "dtype"
    value {
      type: DT_INT32
    }
  }
  attr {
    key: "value"
    value {
      tensor {
        dtype: DT_INT32
        tensor_shape {
          dim {
            size: 1
          }
        }
        int_val: 1
      }
    }
  }
}
node {
  name: "report_uninitialized_variables_1/boolean_mask/strided_slice_2/stack_1"
  op: "Const"
  device: "/device:CPU:0"
  attr {
    key: "_output_shapes"
    value {
      list {
        shape {
          dim {
            size: 1
          }
        }
      }
    }
  }
  attr {
    key: "dtype"
    value {
      type: DT_INT32
    }
  }
  attr {
    key: "value"
    value {
      tensor {
        dtype: DT_INT32
        tensor_shape {
          dim {
            size: 1
          }
        }
        int_val: 0
      }
    }
  }
}
node {
  name: "report_uninitialized_variables_1/boolean_mask/strided_slice_2/stack_2"
  op: "Const"
  device: "/device:CPU:0"
  attr {
    key: "_output_shapes"
    value {
      list {
        shape {
          dim {
            size: 1
          }
        }
      }
    }
  }
  attr {
    key: "dtype"
    value {
      type: DT_INT32
    }
  }
  attr {
    key: "value"
    value {
      tensor {
        dtype: DT_INT32
        tensor_shape {
          dim {
            size: 1
          }
        }
        int_val: 1
      }
    }
  }
}
node {
  name: "report_uninitialized_variables_1/boolean_mask/strided_slice_2"
  op: "StridedSlice"
  input: "report_uninitialized_variables_1/boolean_mask/Shape_2"
  input: "report_uninitialized_variables_1/boolean_mask/strided_slice_2/stack"
  input: "report_uninitialized_variables_1/boolean_mask/strided_slice_2/stack_1"
  input: "report_uninitialized_variables_1/boolean_mask/strided_slice_2/stack_2"
  device: "/device:CPU:0"
  attr {
    key: "Index"
    value {
      type: DT_INT32
    }
  }
  attr {
    key: "T"
    value {
      type: DT_INT32
    }
  }
  attr {
    key: "_output_shapes"
    value {
      list {
        shape {
          dim {
          }
        }
      }
    }
  }
  attr {
    key: "begin_mask"
    value {
      i: 0
    }
  }
  attr {
    key: "ellipsis_mask"
    value {
      i: 0
    }
  }
  attr {
    key: "end_mask"
    value {
      i: 1
    }
  }
  attr {
    key: "new_axis_mask"
    value {
      i: 0
    }
  }
  attr {
    key: "shrink_axis_mask"
    value {
      i: 0
    }
  }
}
node {
  name: "report_uninitialized_variables_1/boolean_mask/concat/values_1"
  op: "Pack"
  input: "report_uninitialized_variables_1/boolean_mask/Prod"
  device: "/device:CPU:0"
  attr {
    key: "N"
    value {
      i: 1
    }
  }
  attr {
    key: "T"
    value {
      type: DT_INT32
    }
  }
  attr {
    key: "_output_shapes"
    value {
      list {
        shape {
          dim {
            size: 1
          }
        }
      }
    }
  }
  attr {
    key: "axis"
    value {
      i: 0
    }
  }
}
node {
  name: "report_uninitialized_variables_1/boolean_mask/concat/axis"
  op: "Const"
  device: "/device:CPU:0"
  attr {
    key: "_output_shapes"
    value {
      list {
        shape {
        }
      }
    }
  }
  attr {
    key: "dtype"
    value {
      type: DT_INT32
    }
  }
  attr {
    key: "value"
    value {
      tensor {
        dtype: DT_INT32
        tensor_shape {
        }
        int_val: 0
      }
    }
  }
}
node {
  name: "report_uninitialized_variables_1/boolean_mask/concat"
  op: "ConcatV2"
  input: "report_uninitialized_variables_1/boolean_mask/strided_slice_1"
  input: "report_uninitialized_variables_1/boolean_mask/concat/values_1"
  input: "report_uninitialized_variables_1/boolean_mask/strided_slice_2"
  input: "report_uninitialized_variables_1/boolean_mask/concat/axis"
  device: "/device:CPU:0"
  attr {
    key: "N"
    value {
      i: 3
    }
  }
  attr {
    key: "T"
    value {
      type: DT_INT32
    }
  }
  attr {
    key: "Tidx"
    value {
      type: DT_INT32
    }
  }
  attr {
    key: "_output_shapes"
    value {
      list {
        shape {
          dim {
            size: 1
          }
        }
      }
    }
  }
}
node {
  name: "report_uninitialized_variables_1/boolean_mask/Reshape"
  op: "Reshape"
  input: "report_uninitialized_variables_1/Const"
  input: "report_uninitialized_variables_1/boolean_mask/concat"
  device: "/device:CPU:0"
  attr {
    key: "T"
    value {
      type: DT_STRING
    }
  }
  attr {
    key: "Tshape"
    value {
      type: DT_INT32
    }
  }
  attr {
    key: "_output_shapes"
    value {
      list {
        shape {
          dim {
            size: 27
          }
        }
      }
    }
  }
}
node {
  name: "report_uninitialized_variables_1/boolean_mask/Reshape_1/shape"
  op: "Const"
  device: "/device:CPU:0"
  attr {
    key: "_output_shapes"
    value {
      list {
        shape {
          dim {
            size: 1
          }
        }
      }
    }
  }
  attr {
    key: "dtype"
    value {
      type: DT_INT32
    }
  }
  attr {
    key: "value"
    value {
      tensor {
        dtype: DT_INT32
        tensor_shape {
          dim {
            size: 1
          }
        }
        int_val: -1
      }
    }
  }
}
node {
  name: "report_uninitialized_variables_1/boolean_mask/Reshape_1"
  op: "Reshape"
  input: "report_uninitialized_variables_1/LogicalNot"
  input: "report_uninitialized_variables_1/boolean_mask/Reshape_1/shape"
  device: "/device:CPU:0"
  attr {
    key: "T"
    value {
      type: DT_BOOL
    }
  }
  attr {
    key: "Tshape"
    value {
      type: DT_INT32
    }
  }
  attr {
    key: "_output_shapes"
    value {
      list {
        shape {
          dim {
            size: 27
          }
        }
      }
    }
  }
}
node {
  name: "report_uninitialized_variables_1/boolean_mask/Where"
  op: "Where"
  input: "report_uninitialized_variables_1/boolean_mask/Reshape_1"
  device: "/device:CPU:0"
  attr {
    key: "T"
    value {
      type: DT_BOOL
    }
  }
  attr {
    key: "_output_shapes"
    value {
      list {
        shape {
          dim {
            size: -1
          }
          dim {
            size: 1
          }
        }
      }
    }
  }
}
node {
  name: "report_uninitialized_variables_1/boolean_mask/Squeeze"
  op: "Squeeze"
  input: "report_uninitialized_variables_1/boolean_mask/Where"
  device: "/device:CPU:0"
  attr {
    key: "T"
    value {
      type: DT_INT64
    }
  }
  attr {
    key: "_output_shapes"
    value {
      list {
        shape {
          dim {
            size: -1
          }
        }
      }
    }
  }
  attr {
    key: "squeeze_dims"
    value {
      list {
        i: 1
      }
    }
  }
}
node {
  name: "report_uninitialized_variables_1/boolean_mask/GatherV2/axis"
  op: "Const"
  device: "/device:CPU:0"
  attr {
    key: "_output_shapes"
    value {
      list {
        shape {
        }
      }
    }
  }
  attr {
    key: "dtype"
    value {
      type: DT_INT32
    }
  }
  attr {
    key: "value"
    value {
      tensor {
        dtype: DT_INT32
        tensor_shape {
        }
        int_val: 0
      }
    }
  }
}
node {
  name: "report_uninitialized_variables_1/boolean_mask/GatherV2"
  op: "GatherV2"
  input: "report_uninitialized_variables_1/boolean_mask/Reshape"
  input: "report_uninitialized_variables_1/boolean_mask/Squeeze"
  input: "report_uninitialized_variables_1/boolean_mask/GatherV2/axis"
  device: "/device:CPU:0"
  attr {
    key: "Taxis"
    value {
      type: DT_INT32
    }
  }
  attr {
    key: "Tindices"
    value {
      type: DT_INT64
    }
  }
  attr {
    key: "Tparams"
    value {
      type: DT_STRING
    }
  }
  attr {
    key: "_output_shapes"
    value {
      list {
        shape {
          dim {
            size: -1
          }
        }
      }
    }
  }
}
node {
  name: "init_1"
  op: "NoOp"
}
node {
  name: "init_all_tables"
  op: "NoOp"
}
node {
  name: "init_2"
  op: "NoOp"
}
node {
  name: "group_deps"
  op: "NoOp"
  input: "^init_1"
  input: "^init_2"
  input: "^init_all_tables"
}
node {
  name: "save/Const"
  op: "Const"
  attr {
    key: "_output_shapes"
    value {
      list {
        shape {
        }
      }
    }
  }
  attr {
    key: "dtype"
    value {
      type: DT_STRING
    }
  }
  attr {
    key: "value"
    value {
      tensor {
        dtype: DT_STRING
        tensor_shape {
        }
        string_val: "model"
      }
    }
  }
}
node {
  name: "save/StringJoin/inputs_1"
  op: "Const"
  attr {
    key: "_output_shapes"
    value {
      list {
        shape {
        }
      }
    }
  }
  attr {
    key: "dtype"
    value {
      type: DT_STRING
    }
  }
  attr {
    key: "value"
    value {
      tensor {
        dtype: DT_STRING
        tensor_shape {
        }
        string_val: "_temp_37fe1d09bb004b16bbae2d635949ed11/part"
      }
    }
  }
}
node {
  name: "save/StringJoin"
  op: "StringJoin"
  input: "save/Const"
  input: "save/StringJoin/inputs_1"
  attr {
    key: "N"
    value {
      i: 2
    }
  }
  attr {
    key: "_output_shapes"
    value {
      list {
        shape {
        }
      }
    }
  }
  attr {
    key: "separator"
    value {
      s: ""
    }
  }
}
node {
  name: "save/num_shards"
  op: "Const"
  attr {
    key: "_output_shapes"
    value {
      list {
        shape {
        }
      }
    }
  }
  attr {
    key: "dtype"
    value {
      type: DT_INT32
    }
  }
  attr {
    key: "value"
    value {
      tensor {
        dtype: DT_INT32
        tensor_shape {
        }
        int_val: 1
      }
    }
  }
}
node {
  name: "save/ShardedFilename/shard"
  op: "Const"
  device: "/job:ps/task:0/device:CPU:0"
  attr {
    key: "_output_shapes"
    value {
      list {
        shape {
        }
      }
    }
  }
  attr {
    key: "dtype"
    value {
      type: DT_INT32
    }
  }
  attr {
    key: "value"
    value {
      tensor {
        dtype: DT_INT32
        tensor_shape {
        }
        int_val: 0
      }
    }
  }
}
node {
  name: "save/ShardedFilename"
  op: "ShardedFilename"
  input: "save/StringJoin"
  input: "save/ShardedFilename/shard"
  input: "save/num_shards"
  device: "/job:ps/task:0/device:CPU:0"
  attr {
    key: "_output_shapes"
    value {
      list {
        shape {
        }
      }
    }
  }
}
node {
  name: "save/SaveV2/tensor_names"
  op: "Const"
  device: "/job:ps/task:0/device:CPU:0"
  attr {
    key: "_output_shapes"
    value {
      list {
        shape {
          dim {
            size: 27
          }
        }
      }
    }
  }
  attr {
    key: "dtype"
    value {
      type: DT_STRING
    }
  }
  attr {
    key: "value"
    value {
      tensor {
        dtype: DT_STRING
        tensor_shape {
          dim {
            size: 27
          }
        }
        string_val: "Variable"
        string_val: "Variable/Adam"
        string_val: "Variable/Adam_1"
        string_val: "Variable_1"
        string_val: "Variable_1/Adam"
        string_val: "Variable_1/Adam_1"
        string_val: "Variable_2"
        string_val: "Variable_2/Adam"
        string_val: "Variable_2/Adam_1"
        string_val: "Variable_3"
        string_val: "Variable_3/Adam"
        string_val: "Variable_3/Adam_1"
        string_val: "Variable_4"
        string_val: "Variable_4/Adam"
        string_val: "Variable_4/Adam_1"
        string_val: "Variable_5"
        string_val: "Variable_5/Adam"
        string_val: "Variable_5/Adam_1"
        string_val: "Variable_6"
        string_val: "Variable_6/Adam"
        string_val: "Variable_6/Adam_1"
        string_val: "Variable_7"
        string_val: "Variable_7/Adam"
        string_val: "Variable_7/Adam_1"
        string_val: "beta1_power"
        string_val: "beta2_power"
        string_val: "global_step"
      }
    }
  }
}
node {
  name: "save/SaveV2/shape_and_slices"
  op: "Const"
  device: "/job:ps/task:0/device:CPU:0"
  attr {
    key: "_output_shapes"
    value {
      list {
        shape {
          dim {
            size: 27
          }
        }
      }
    }
  }
  attr {
    key: "dtype"
    value {
      type: DT_STRING
    }
  }
  attr {
    key: "value"
    value {
      tensor {
        dtype: DT_STRING
        tensor_shape {
          dim {
            size: 27
          }
        }
        string_val: ""
        string_val: ""
        string_val: ""
        string_val: ""
        string_val: ""
        string_val: ""
        string_val: ""
        string_val: ""
        string_val: ""
        string_val: ""
        string_val: ""
        string_val: ""
        string_val: ""
        string_val: ""
        string_val: ""
        string_val: ""
        string_val: ""
        string_val: ""
        string_val: ""
        string_val: ""
        string_val: ""
        string_val: ""
        string_val: ""
        string_val: ""
        string_val: ""
        string_val: ""
        string_val: ""
      }
    }
  }
}
node {
  name: "save/SaveV2"
  op: "SaveV2"
  input: "save/ShardedFilename"
  input: "save/SaveV2/tensor_names"
  input: "save/SaveV2/shape_and_slices"
  input: "Variable"
  input: "Variable/Adam"
  input: "Variable/Adam_1"
  input: "Variable_1"
  input: "Variable_1/Adam"
  input: "Variable_1/Adam_1"
  input: "Variable_2"
  input: "Variable_2/Adam"
  input: "Variable_2/Adam_1"
  input: "Variable_3"
  input: "Variable_3/Adam"
  input: "Variable_3/Adam_1"
  input: "Variable_4"
  input: "Variable_4/Adam"
  input: "Variable_4/Adam_1"
  input: "Variable_5"
  input: "Variable_5/Adam"
  input: "Variable_5/Adam_1"
  input: "Variable_6"
  input: "Variable_6/Adam"
  input: "Variable_6/Adam_1"
  input: "Variable_7"
  input: "Variable_7/Adam"
  input: "Variable_7/Adam_1"
  input: "beta1_power"
  input: "beta2_power"
  input: "global_step"
  device: "/job:ps/task:0/device:CPU:0"
  attr {
    key: "dtypes"
    value {
      list {
        type: DT_FLOAT
        type: DT_FLOAT
        type: DT_FLOAT
        type: DT_FLOAT
        type: DT_FLOAT
        type: DT_FLOAT
        type: DT_FLOAT
        type: DT_FLOAT
        type: DT_FLOAT
        type: DT_FLOAT
        type: DT_FLOAT
        type: DT_FLOAT
        type: DT_FLOAT
        type: DT_FLOAT
        type: DT_FLOAT
        type: DT_FLOAT
        type: DT_FLOAT
        type: DT_FLOAT
        type: DT_FLOAT
        type: DT_FLOAT
        type: DT_FLOAT
        type: DT_FLOAT
        type: DT_FLOAT
        type: DT_FLOAT
        type: DT_FLOAT
        type: DT_FLOAT
        type: DT_INT64
      }
    }
  }
}
node {
  name: "save/control_dependency"
  op: "Identity"
  input: "save/ShardedFilename"
  input: "^save/SaveV2"
  device: "/job:ps/task:0/device:CPU:0"
  attr {
    key: "T"
    value {
      type: DT_STRING
    }
  }
  attr {
    key: "_class"
    value {
      list {
        s: "loc:@save/ShardedFilename"
      }
    }
  }
  attr {
    key: "_output_shapes"
    value {
      list {
        shape {
        }
      }
    }
  }
}
node {
  name: "save/MergeV2Checkpoints/checkpoint_prefixes"
  op: "Pack"
  input: "save/ShardedFilename"
  input: "^save/control_dependency"
  device: "/job:ps/task:0/device:CPU:0"
  attr {
    key: "N"
    value {
      i: 1
    }
  }
  attr {
    key: "T"
    value {
      type: DT_STRING
    }
  }
  attr {
    key: "_output_shapes"
    value {
      list {
        shape {
          dim {
            size: 1
          }
        }
      }
    }
  }
  attr {
    key: "axis"
    value {
      i: 0
    }
  }
}
node {
  name: "save/MergeV2Checkpoints"
  op: "MergeV2Checkpoints"
  input: "save/MergeV2Checkpoints/checkpoint_prefixes"
  input: "save/Const"
  device: "/job:ps/task:0/device:CPU:0"
  attr {
    key: "delete_old_dirs"
    value {
      b: true
    }
  }
}
node {
  name: "save/Identity"
  op: "Identity"
  input: "save/Const"
  input: "^save/MergeV2Checkpoints"
  input: "^save/control_dependency"
  device: "/job:ps/task:0/device:CPU:0"
  attr {
    key: "T"
    value {
      type: DT_STRING
    }
  }
  attr {
    key: "_output_shapes"
    value {
      list {
        shape {
        }
      }
    }
  }
}
node {
  name: "save/RestoreV2/tensor_names"
  op: "Const"
  device: "/job:ps/task:0/device:CPU:0"
  attr {
    key: "_output_shapes"
    value {
      list {
        shape {
          dim {
            size: 27
          }
        }
      }
    }
  }
  attr {
    key: "dtype"
    value {
      type: DT_STRING
    }
  }
  attr {
    key: "value"
    value {
      tensor {
        dtype: DT_STRING
        tensor_shape {
          dim {
            size: 27
          }
        }
        string_val: "Variable"
        string_val: "Variable/Adam"
        string_val: "Variable/Adam_1"
        string_val: "Variable_1"
        string_val: "Variable_1/Adam"
        string_val: "Variable_1/Adam_1"
        string_val: "Variable_2"
        string_val: "Variable_2/Adam"
        string_val: "Variable_2/Adam_1"
        string_val: "Variable_3"
        string_val: "Variable_3/Adam"
        string_val: "Variable_3/Adam_1"
        string_val: "Variable_4"
        string_val: "Variable_4/Adam"
        string_val: "Variable_4/Adam_1"
        string_val: "Variable_5"
        string_val: "Variable_5/Adam"
        string_val: "Variable_5/Adam_1"
        string_val: "Variable_6"
        string_val: "Variable_6/Adam"
        string_val: "Variable_6/Adam_1"
        string_val: "Variable_7"
        string_val: "Variable_7/Adam"
        string_val: "Variable_7/Adam_1"
        string_val: "beta1_power"
        string_val: "beta2_power"
        string_val: "global_step"
      }
    }
  }
}
node {
  name: "save/RestoreV2/shape_and_slices"
  op: "Const"
  device: "/job:ps/task:0/device:CPU:0"
  attr {
    key: "_output_shapes"
    value {
      list {
        shape {
          dim {
            size: 27
          }
        }
      }
    }
  }
  attr {
    key: "dtype"
    value {
      type: DT_STRING
    }
  }
  attr {
    key: "value"
    value {
      tensor {
        dtype: DT_STRING
        tensor_shape {
          dim {
            size: 27
          }
        }
        string_val: ""
        string_val: ""
        string_val: ""
        string_val: ""
        string_val: ""
        string_val: ""
        string_val: ""
        string_val: ""
        string_val: ""
        string_val: ""
        string_val: ""
        string_val: ""
        string_val: ""
        string_val: ""
        string_val: ""
        string_val: ""
        string_val: ""
        string_val: ""
        string_val: ""
        string_val: ""
        string_val: ""
        string_val: ""
        string_val: ""
        string_val: ""
        string_val: ""
        string_val: ""
        string_val: ""
      }
    }
  }
}
node {
  name: "save/RestoreV2"
  op: "RestoreV2"
  input: "save/Const"
  input: "save/RestoreV2/tensor_names"
  input: "save/RestoreV2/shape_and_slices"
  device: "/job:ps/task:0/device:CPU:0"
  attr {
    key: "_output_shapes"
    value {
      list {
        shape {
          unknown_rank: true
        }
        shape {
          unknown_rank: true
        }
        shape {
          unknown_rank: true
        }
        shape {
          unknown_rank: true
        }
        shape {
          unknown_rank: true
        }
        shape {
          unknown_rank: true
        }
        shape {
          unknown_rank: true
        }
        shape {
          unknown_rank: true
        }
        shape {
          unknown_rank: true
        }
        shape {
          unknown_rank: true
        }
        shape {
          unknown_rank: true
        }
        shape {
          unknown_rank: true
        }
        shape {
          unknown_rank: true
        }
        shape {
          unknown_rank: true
        }
        shape {
          unknown_rank: true
        }
        shape {
          unknown_rank: true
        }
        shape {
          unknown_rank: true
        }
        shape {
          unknown_rank: true
        }
        shape {
          unknown_rank: true
        }
        shape {
          unknown_rank: true
        }
        shape {
          unknown_rank: true
        }
        shape {
          unknown_rank: true
        }
        shape {
          unknown_rank: true
        }
        shape {
          unknown_rank: true
        }
        shape {
          unknown_rank: true
        }
        shape {
          unknown_rank: true
        }
        shape {
          unknown_rank: true
        }
      }
    }
  }
  attr {
    key: "dtypes"
    value {
      list {
        type: DT_FLOAT
        type: DT_FLOAT
        type: DT_FLOAT
        type: DT_FLOAT
        type: DT_FLOAT
        type: DT_FLOAT
        type: DT_FLOAT
        type: DT_FLOAT
        type: DT_FLOAT
        type: DT_FLOAT
        type: DT_FLOAT
        type: DT_FLOAT
        type: DT_FLOAT
        type: DT_FLOAT
        type: DT_FLOAT
        type: DT_FLOAT
        type: DT_FLOAT
        type: DT_FLOAT
        type: DT_FLOAT
        type: DT_FLOAT
        type: DT_FLOAT
        type: DT_FLOAT
        type: DT_FLOAT
        type: DT_FLOAT
        type: DT_FLOAT
        type: DT_FLOAT
        type: DT_INT64
      }
    }
  }
}
node {
  name: "save/Assign"
  op: "Assign"
  input: "Variable"
  input: "save/RestoreV2"
  device: "/job:ps/task:0"
  attr {
    key: "T"
    value {
      type: DT_FLOAT
    }
  }
  attr {
    key: "_class"
    value {
      list {
        s: "loc:@Variable"
      }
    }
  }
  attr {
    key: "_output_shapes"
    value {
      list {
        shape {
          dim {
            size: 5
          }
          dim {
            size: 5
          }
          dim {
            size: 1
          }
          dim {
            size: 64
          }
        }
      }
    }
  }
  attr {
    key: "use_locking"
    value {
      b: true
    }
  }
  attr {
    key: "validate_shape"
    value {
      b: true
    }
  }
}
node {
  name: "save/Assign_1"
  op: "Assign"
  input: "Variable/Adam"
  input: "save/RestoreV2:1"
  device: "/job:ps/task:0"
  attr {
    key: "T"
    value {
      type: DT_FLOAT
    }
  }
  attr {
    key: "_class"
    value {
      list {
        s: "loc:@Variable"
      }
    }
  }
  attr {
    key: "_output_shapes"
    value {
      list {
        shape {
          dim {
            size: 5
          }
          dim {
            size: 5
          }
          dim {
            size: 1
          }
          dim {
            size: 64
          }
        }
      }
    }
  }
  attr {
    key: "use_locking"
    value {
      b: true
    }
  }
  attr {
    key: "validate_shape"
    value {
      b: true
    }
  }
}
node {
  name: "save/Assign_2"
  op: "Assign"
  input: "Variable/Adam_1"
  input: "save/RestoreV2:2"
  device: "/job:ps/task:0"
  attr {
    key: "T"
    value {
      type: DT_FLOAT
    }
  }
  attr {
    key: "_class"
    value {
      list {
        s: "loc:@Variable"
      }
    }
  }
  attr {
    key: "_output_shapes"
    value {
      list {
        shape {
          dim {
            size: 5
          }
          dim {
            size: 5
          }
          dim {
            size: 1
          }
          dim {
            size: 64
          }
        }
      }
    }
  }
  attr {
    key: "use_locking"
    value {
      b: true
    }
  }
  attr {
    key: "validate_shape"
    value {
      b: true
    }
  }
}
node {
  name: "save/Assign_3"
  op: "Assign"
  input: "Variable_1"
  input: "save/RestoreV2:3"
  device: "/job:ps/task:0"
  attr {
    key: "T"
    value {
      type: DT_FLOAT
    }
  }
  attr {
    key: "_class"
    value {
      list {
        s: "loc:@Variable_1"
      }
    }
  }
  attr {
    key: "_output_shapes"
    value {
      list {
        shape {
          dim {
            size: 5
          }
          dim {
            size: 5
          }
          dim {
            size: 64
          }
          dim {
            size: 128
          }
        }
      }
    }
  }
  attr {
    key: "use_locking"
    value {
      b: true
    }
  }
  attr {
    key: "validate_shape"
    value {
      b: true
    }
  }
}
node {
  name: "save/Assign_4"
  op: "Assign"
  input: "Variable_1/Adam"
  input: "save/RestoreV2:4"
  device: "/job:ps/task:0"
  attr {
    key: "T"
    value {
      type: DT_FLOAT
    }
  }
  attr {
    key: "_class"
    value {
      list {
        s: "loc:@Variable_1"
      }
    }
  }
  attr {
    key: "_output_shapes"
    value {
      list {
        shape {
          dim {
            size: 5
          }
          dim {
            size: 5
          }
          dim {
            size: 64
          }
          dim {
            size: 128
          }
        }
      }
    }
  }
  attr {
    key: "use_locking"
    value {
      b: true
    }
  }
  attr {
    key: "validate_shape"
    value {
      b: true
    }
  }
}
node {
  name: "save/Assign_5"
  op: "Assign"
  input: "Variable_1/Adam_1"
  input: "save/RestoreV2:5"
  device: "/job:ps/task:0"
  attr {
    key: "T"
    value {
      type: DT_FLOAT
    }
  }
  attr {
    key: "_class"
    value {
      list {
        s: "loc:@Variable_1"
      }
    }
  }
  attr {
    key: "_output_shapes"
    value {
      list {
        shape {
          dim {
            size: 5
          }
          dim {
            size: 5
          }
          dim {
            size: 64
          }
          dim {
            size: 128
          }
        }
      }
    }
  }
  attr {
    key: "use_locking"
    value {
      b: true
    }
  }
  attr {
    key: "validate_shape"
    value {
      b: true
    }
  }
}
node {
  name: "save/Assign_6"
  op: "Assign"
  input: "Variable_2"
  input: "save/RestoreV2:6"
  device: "/job:ps/task:0"
  attr {
    key: "T"
    value {
      type: DT_FLOAT
    }
  }
  attr {
    key: "_class"
    value {
      list {
        s: "loc:@Variable_2"
      }
    }
  }
  attr {
    key: "_output_shapes"
    value {
      list {
        shape {
          dim {
            size: 6272
          }
          dim {
            size: 1024
          }
        }
      }
    }
  }
  attr {
    key: "use_locking"
    value {
      b: true
    }
  }
  attr {
    key: "validate_shape"
    value {
      b: true
    }
  }
}
node {
  name: "save/Assign_7"
  op: "Assign"
  input: "Variable_2/Adam"
  input: "save/RestoreV2:7"
  device: "/job:ps/task:0"
  attr {
    key: "T"
    value {
      type: DT_FLOAT
    }
  }
  attr {
    key: "_class"
    value {
      list {
        s: "loc:@Variable_2"
      }
    }
  }
  attr {
    key: "_output_shapes"
    value {
      list {
        shape {
          dim {
            size: 6272
          }
          dim {
            size: 1024
          }
        }
      }
    }
  }
  attr {
    key: "use_locking"
    value {
      b: true
    }
  }
  attr {
    key: "validate_shape"
    value {
      b: true
    }
  }
}
node {
  name: "save/Assign_8"
  op: "Assign"
  input: "Variable_2/Adam_1"
  input: "save/RestoreV2:8"
  device: "/job:ps/task:0"
  attr {
    key: "T"
    value {
      type: DT_FLOAT
    }
  }
  attr {
    key: "_class"
    value {
      list {
        s: "loc:@Variable_2"
      }
    }
  }
  attr {
    key: "_output_shapes"
    value {
      list {
        shape {
          dim {
            size: 6272
          }
          dim {
            size: 1024
          }
        }
      }
    }
  }
  attr {
    key: "use_locking"
    value {
      b: true
    }
  }
  attr {
    key: "validate_shape"
    value {
      b: true
    }
  }
}
node {
  name: "save/Assign_9"
  op: "Assign"
  input: "Variable_3"
  input: "save/RestoreV2:9"
  device: "/job:ps/task:0"
  attr {
    key: "T"
    value {
      type: DT_FLOAT
    }
  }
  attr {
    key: "_class"
    value {
      list {
        s: "loc:@Variable_3"
      }
    }
  }
  attr {
    key: "_output_shapes"
    value {
      list {
        shape {
          dim {
            size: 1024
          }
          dim {
            size: 10
          }
        }
      }
    }
  }
  attr {
    key: "use_locking"
    value {
      b: true
    }
  }
  attr {
    key: "validate_shape"
    value {
      b: true
    }
  }
}
node {
  name: "save/Assign_10"
  op: "Assign"
  input: "Variable_3/Adam"
  input: "save/RestoreV2:10"
  device: "/job:ps/task:0"
  attr {
    key: "T"
    value {
      type: DT_FLOAT
    }
  }
  attr {
    key: "_class"
    value {
      list {
        s: "loc:@Variable_3"
      }
    }
  }
  attr {
    key: "_output_shapes"
    value {
      list {
        shape {
          dim {
            size: 1024
          }
          dim {
            size: 10
          }
        }
      }
    }
  }
  attr {
    key: "use_locking"
    value {
      b: true
    }
  }
  attr {
    key: "validate_shape"
    value {
      b: true
    }
  }
}
node {
  name: "save/Assign_11"
  op: "Assign"
  input: "Variable_3/Adam_1"
  input: "save/RestoreV2:11"
  device: "/job:ps/task:0"
  attr {
    key: "T"
    value {
      type: DT_FLOAT
    }
  }
  attr {
    key: "_class"
    value {
      list {
        s: "loc:@Variable_3"
      }
    }
  }
  attr {
    key: "_output_shapes"
    value {
      list {
        shape {
          dim {
            size: 1024
          }
          dim {
            size: 10
          }
        }
      }
    }
  }
  attr {
    key: "use_locking"
    value {
      b: true
    }
  }
  attr {
    key: "validate_shape"
    value {
      b: true
    }
  }
}
node {
  name: "save/Assign_12"
  op: "Assign"
  input: "Variable_4"
  input: "save/RestoreV2:12"
  device: "/job:ps/task:0"
  attr {
    key: "T"
    value {
      type: DT_FLOAT
    }
  }
  attr {
    key: "_class"
    value {
      list {
        s: "loc:@Variable_4"
      }
    }
  }
  attr {
    key: "_output_shapes"
    value {
      list {
        shape {
          dim {
            size: 64
          }
        }
      }
    }
  }
  attr {
    key: "use_locking"
    value {
      b: true
    }
  }
  attr {
    key: "validate_shape"
    value {
      b: true
    }
  }
}
node {
  name: "save/Assign_13"
  op: "Assign"
  input: "Variable_4/Adam"
  input: "save/RestoreV2:13"
  device: "/job:ps/task:0"
  attr {
    key: "T"
    value {
      type: DT_FLOAT
    }
  }
  attr {
    key: "_class"
    value {
      list {
        s: "loc:@Variable_4"
      }
    }
  }
  attr {
    key: "_output_shapes"
    value {
      list {
        shape {
          dim {
            size: 64
          }
        }
      }
    }
  }
  attr {
    key: "use_locking"
    value {
      b: true
    }
  }
  attr {
    key: "validate_shape"
    value {
      b: true
    }
  }
}
node {
  name: "save/Assign_14"
  op: "Assign"
  input: "Variable_4/Adam_1"
  input: "save/RestoreV2:14"
  device: "/job:ps/task:0"
  attr {
    key: "T"
    value {
      type: DT_FLOAT
    }
  }
  attr {
    key: "_class"
    value {
      list {
        s: "loc:@Variable_4"
      }
    }
  }
  attr {
    key: "_output_shapes"
    value {
      list {
        shape {
          dim {
            size: 64
          }
        }
      }
    }
  }
  attr {
    key: "use_locking"
    value {
      b: true
    }
  }
  attr {
    key: "validate_shape"
    value {
      b: true
    }
  }
}
node {
  name: "save/Assign_15"
  op: "Assign"
  input: "Variable_5"
  input: "save/RestoreV2:15"
  device: "/job:ps/task:0"
  attr {
    key: "T"
    value {
      type: DT_FLOAT
    }
  }
  attr {
    key: "_class"
    value {
      list {
        s: "loc:@Variable_5"
      }
    }
  }
  attr {
    key: "_output_shapes"
    value {
      list {
        shape {
          dim {
            size: 128
          }
        }
      }
    }
  }
  attr {
    key: "use_locking"
    value {
      b: true
    }
  }
  attr {
    key: "validate_shape"
    value {
      b: true
    }
  }
}
node {
  name: "save/Assign_16"
  op: "Assign"
  input: "Variable_5/Adam"
  input: "save/RestoreV2:16"
  device: "/job:ps/task:0"
  attr {
    key: "T"
    value {
      type: DT_FLOAT
    }
  }
  attr {
    key: "_class"
    value {
      list {
        s: "loc:@Variable_5"
      }
    }
  }
  attr {
    key: "_output_shapes"
    value {
      list {
        shape {
          dim {
            size: 128
          }
        }
      }
    }
  }
  attr {
    key: "use_locking"
    value {
      b: true
    }
  }
  attr {
    key: "validate_shape"
    value {
      b: true
    }
  }
}
node {
  name: "save/Assign_17"
  op: "Assign"
  input: "Variable_5/Adam_1"
  input: "save/RestoreV2:17"
  device: "/job:ps/task:0"
  attr {
    key: "T"
    value {
      type: DT_FLOAT
    }
  }
  attr {
    key: "_class"
    value {
      list {
        s: "loc:@Variable_5"
      }
    }
  }
  attr {
    key: "_output_shapes"
    value {
      list {
        shape {
          dim {
            size: 128
          }
        }
      }
    }
  }
  attr {
    key: "use_locking"
    value {
      b: true
    }
  }
  attr {
    key: "validate_shape"
    value {
      b: true
    }
  }
}
node {
  name: "save/Assign_18"
  op: "Assign"
  input: "Variable_6"
  input: "save/RestoreV2:18"
  device: "/job:ps/task:0"
  attr {
    key: "T"
    value {
      type: DT_FLOAT
    }
  }
  attr {
    key: "_class"
    value {
      list {
        s: "loc:@Variable_6"
      }
    }
  }
  attr {
    key: "_output_shapes"
    value {
      list {
        shape {
          dim {
            size: 1024
          }
        }
      }
    }
  }
  attr {
    key: "use_locking"
    value {
      b: true
    }
  }
  attr {
    key: "validate_shape"
    value {
      b: true
    }
  }
}
node {
  name: "save/Assign_19"
  op: "Assign"
  input: "Variable_6/Adam"
  input: "save/RestoreV2:19"
  device: "/job:ps/task:0"
  attr {
    key: "T"
    value {
      type: DT_FLOAT
    }
  }
  attr {
    key: "_class"
    value {
      list {
        s: "loc:@Variable_6"
      }
    }
  }
  attr {
    key: "_output_shapes"
    value {
      list {
        shape {
          dim {
            size: 1024
          }
        }
      }
    }
  }
  attr {
    key: "use_locking"
    value {
      b: true
    }
  }
  attr {
    key: "validate_shape"
    value {
      b: true
    }
  }
}
node {
  name: "save/Assign_20"
  op: "Assign"
  input: "Variable_6/Adam_1"
  input: "save/RestoreV2:20"
  device: "/job:ps/task:0"
  attr {
    key: "T"
    value {
      type: DT_FLOAT
    }
  }
  attr {
    key: "_class"
    value {
      list {
        s: "loc:@Variable_6"
      }
    }
  }
  attr {
    key: "_output_shapes"
    value {
      list {
        shape {
          dim {
            size: 1024
          }
        }
      }
    }
  }
  attr {
    key: "use_locking"
    value {
      b: true
    }
  }
  attr {
    key: "validate_shape"
    value {
      b: true
    }
  }
}
node {
  name: "save/Assign_21"
  op: "Assign"
  input: "Variable_7"
  input: "save/RestoreV2:21"
  device: "/job:ps/task:0"
  attr {
    key: "T"
    value {
      type: DT_FLOAT
    }
  }
  attr {
    key: "_class"
    value {
      list {
        s: "loc:@Variable_7"
      }
    }
  }
  attr {
    key: "_output_shapes"
    value {
      list {
        shape {
          dim {
            size: 10
          }
        }
      }
    }
  }
  attr {
    key: "use_locking"
    value {
      b: true
    }
  }
  attr {
    key: "validate_shape"
    value {
      b: true
    }
  }
}
node {
  name: "save/Assign_22"
  op: "Assign"
  input: "Variable_7/Adam"
  input: "save/RestoreV2:22"
  device: "/job:ps/task:0"
  attr {
    key: "T"
    value {
      type: DT_FLOAT
    }
  }
  attr {
    key: "_class"
    value {
      list {
        s: "loc:@Variable_7"
      }
    }
  }
  attr {
    key: "_output_shapes"
    value {
      list {
        shape {
          dim {
            size: 10
          }
        }
      }
    }
  }
  attr {
    key: "use_locking"
    value {
      b: true
    }
  }
  attr {
    key: "validate_shape"
    value {
      b: true
    }
  }
}
node {
  name: "save/Assign_23"
  op: "Assign"
  input: "Variable_7/Adam_1"
  input: "save/RestoreV2:23"
  device: "/job:ps/task:0"
  attr {
    key: "T"
    value {
      type: DT_FLOAT
    }
  }
  attr {
    key: "_class"
    value {
      list {
        s: "loc:@Variable_7"
      }
    }
  }
  attr {
    key: "_output_shapes"
    value {
      list {
        shape {
          dim {
            size: 10
          }
        }
      }
    }
  }
  attr {
    key: "use_locking"
    value {
      b: true
    }
  }
  attr {
    key: "validate_shape"
    value {
      b: true
    }
  }
}
node {
  name: "save/Assign_24"
  op: "Assign"
  input: "beta1_power"
  input: "save/RestoreV2:24"
  device: "/job:ps/task:0"
  attr {
    key: "T"
    value {
      type: DT_FLOAT
    }
  }
  attr {
    key: "_class"
    value {
      list {
        s: "loc:@Variable"
      }
    }
  }
  attr {
    key: "_output_shapes"
    value {
      list {
        shape {
        }
      }
    }
  }
  attr {
    key: "use_locking"
    value {
      b: true
    }
  }
  attr {
    key: "validate_shape"
    value {
      b: true
    }
  }
}
node {
  name: "save/Assign_25"
  op: "Assign"
  input: "beta2_power"
  input: "save/RestoreV2:25"
  device: "/job:ps/task:0"
  attr {
    key: "T"
    value {
      type: DT_FLOAT
    }
  }
  attr {
    key: "_class"
    value {
      list {
        s: "loc:@Variable"
      }
    }
  }
  attr {
    key: "_output_shapes"
    value {
      list {
        shape {
        }
      }
    }
  }
  attr {
    key: "use_locking"
    value {
      b: true
    }
  }
  attr {
    key: "validate_shape"
    value {
      b: true
    }
  }
}
node {
  name: "save/Assign_26"
  op: "Assign"
  input: "global_step"
  input: "save/RestoreV2:26"
  device: "/job:ps/task:0"
  attr {
    key: "T"
    value {
      type: DT_INT64
    }
  }
  attr {
    key: "_class"
    value {
      list {
        s: "loc:@global_step"
      }
    }
  }
  attr {
    key: "_output_shapes"
    value {
      list {
        shape {
        }
      }
    }
  }
  attr {
    key: "use_locking"
    value {
      b: true
    }
  }
  attr {
    key: "validate_shape"
    value {
      b: true
    }
  }
}
node {
  name: "save/restore_shard"
  op: "NoOp"
  input: "^save/Assign"
  input: "^save/Assign_1"
  input: "^save/Assign_10"
  input: "^save/Assign_11"
  input: "^save/Assign_12"
  input: "^save/Assign_13"
  input: "^save/Assign_14"
  input: "^save/Assign_15"
  input: "^save/Assign_16"
  input: "^save/Assign_17"
  input: "^save/Assign_18"
  input: "^save/Assign_19"
  input: "^save/Assign_2"
  input: "^save/Assign_20"
  input: "^save/Assign_21"
  input: "^save/Assign_22"
  input: "^save/Assign_23"
  input: "^save/Assign_24"
  input: "^save/Assign_25"
  input: "^save/Assign_26"
  input: "^save/Assign_3"
  input: "^save/Assign_4"
  input: "^save/Assign_5"
  input: "^save/Assign_6"
  input: "^save/Assign_7"
  input: "^save/Assign_8"
  input: "^save/Assign_9"
  device: "/job:ps/task:0"
}
node {
  name: "save/restore_all"
  op: "NoOp"
  input: "^save/restore_shard"
  device: "/job:ps/task:0"
}
versions {
  producer: 26
}
